checkpoint_actor.pth (torch, 544132 bytes, 10 tensors)

n1.weight f4 [33]
0	0x3f9580dd	1.1679951
1	0x3f892658	1.0714827
2	0x3f93d6fb	1.1549982
3	0x3f287ff4	0.6582024
4	0x3f5e5d94	0.8686154
5	0x3f64f776	0.89440095
6	0x3f54c4a7	0.8311257
7	0x3f445d6a	0.7670504
8	0x3f2385b6	0.638759
9	0x3f421cde	0.758253
10	0x3f43d495	0.7649625
11	0x3f4ca392	0.7993709
12	0x3f49843d	0.78717405
13	0x3fadc01a	1.357425
14	0x3f9a52d7	1.2056531
15	0x3fa20c3f	1.2659987
16	0x3f5fd0c2	0.87427914
17	0x3f55d8f8	0.83534193
18	0x3f5865a0	0.8453007
19	0x3f623fe2	0.8837873
20	0x3f69c5e2	0.9131757
21	0x3f5c2efa	0.8600918
22	0x3f4d26df	0.8013744
23	0x3f8d59ba	1.1043007
24	0x3f69e6f8	0.91368055
25	0x3f923bba	1.1424477
26	0x3faefb17	1.3670377
27	0x3f800000	1.0
28	0x3fb0cd2f	1.3812617
29	0x3f800000	1.0
30	0x3f800000	1.0
31	0x3f800000	1.0
32	0x3fc29bbb	1.5203775

n1.bias f4 [33]
0	0x3d6edc2a	0.058315434
1	0xbe54a534	-0.20766145
2	0x3d4eb5fb	0.05046652
3	0x3d1ea98d	0.038735915
4	0xbceb7ed7	-0.028747005
5	0xbcd174d5	-0.025568405
6	0x3d9a8fd4	0.07546964
7	0xbe051f93	-0.13000326
8	0x3da91e68	0.08257753
9	0x3d0a29cb	0.033731263
10	0x3d9b2e03	0.075771354
11	0xbe4da79b	-0.20083468
12	0xbd66363b	-0.056204062
13	0x3c05f9bb	0.008177216
14	0xbd806533	-0.06269302
15	0x3cce5c4c	0.025190495
16	0x3dbe5f7c	0.09295556
17	0x3cb5b3c1	0.02218044
18	0x3d55b7ec	0.052177355
19	0xbccb4ec6	-0.024817836
20	0xbd0d1d1e	-0.034451596
21	0xbdeb6b6a	-0.11495097
22	0xbda11400	-0.07865143
23	0xbc8eb369	-0.017419534
24	0xbd0e655d	-0.034764636
25	0xbd801459	-0.06253881
26	0xbcf236a2	-0.029567067
27	0x3b0bf4e9	0.0021355695
28	0xbd987106	-0.074434325
29	0x3a86dcac	0.0010289154
30	0xbab342c1	-0.001367651
31	0x39d5d383	0.00040784114
32	0x3ccfb426	0.025354456

n1.running_mean f4 [33]
0	0xbd9a60a5	-0.07537965
1	0xc02bd12c	-2.6846418
2	0x3d0baa5a	0.034098007
3	0x3f679131	0.9045592
4	0xbc043552	-0.008069353
5	0x3b7e1eb1	0.0038775618
6	0x3b7e8625	0.003883728
7	0xbc9998a1	-0.018749537
8	0xbcb4f44c	-0.022089146
9	0xbc04b0a4	-0.008098755
10	0xbc4a3e03	-0.012343886
11	0x3c2d4322	0.010575088
12	0x3d5a4416	0.053287588
13	0xbe546ce8	-0.2074467
14	0xc0277a3d	-2.6168358
15	0xbea8fce7	-0.3300545
16	0x3d0cc0fd	0.034363735
17	0xbd806d11	-0.06270803
18	0xbace6a9e	-0.0015748327
19	0xbed6de0b	-0.4196628
20	0xbcb5fe7f	-0.02221608
21	0x3d928089	0.071534224
22	0xbb701b93	-0.003663753
23	0xbd47609d	-0.048676122
24	0x3d6738e6	0.056450747
25	0x3d5817a5	0.052756924
26	0x3daf2a5b	0.085530005
27	0xbf7ffffc	-0.99999976
28	0xbd4e926b	-0.050432604
29	0x00000000	0.0
30	0x3f7ffffc	0.99999976
31	0x00000000	0.0
32	0xbde8977f	-0.113570206

n1.running_var f4 [33]
0	0x4087f5e4	4.248766
1	0x3e72c91c	0.2370953
2	0x408bb5c8	4.36594
3	0x3be0f67f	0.006865322
4	0x3d913546	0.07090239
5	0x3c38e306	0.011284595
6	0x3dbe369a	0.09287758
7	0x3e7a3796	0.24435267
8	0x3d75e571	0.060033266
9	0x3de68f16	0.1125776
10	0x400dca07	2.2154558
11	0x3f3adf7f	0.7299728
12	0x40166786	2.3500686
13	0x419c2876	19.519756
14	0x3f938ba0	1.1526985
15	0x41abdfd5	21.484293
16	0x3db1898f	0.08668815
17	0x3e758f73	0.23980503
18	0x3d83aff7	0.06430047
19	0x3edbd837	0.42938396
20	0x3fcc8d57	1.5980633
21	0x3f31efa0	0.69506264
22	0x3eea9610	0.45817614
23	0x40dee4ff	6.9654536
24	0x403f8ffc	2.993163
25	0x4116aa6a	9.416605
26	0x41ff10a8	31.883133
27	0x00000004	6e-45
28	0x4200be2e	32.185722
29	0x00000004	6e-45
30	0x00000004	6e-45
31	0x00000004	6e-45
32	0x3ea3ea72	0.32014805

fc1.weight f4 [400, 33]
0	0xbbd6cbef	-0.0065550725
1	0x3d4cc792	0.049995013
2	0xbdb47d39	-0.08812947
3	0xbd1fc3b4	-0.039004996
4	0x3b96b02f	0.0045986394
5	0xbc3c1656	-0.011479935
6	0x3cbb20c7	0.022842778
7	0x3b9a8163	0.004715131
8	0xbd11db36	-0.035609446
9	0xbc8b288f	-0.016987113
10	0x3ad93409	0.0016571294
11	0x3d2a9c2f	0.041652855
12	0xbceab256	-0.02864949
13	0xbe3d4696	-0.18483958
14	0x3c0b0230	0.008484408
15	0x3d89990e	0.06718646
16	0xbd1be2ad	-0.03805797
17	0xbc76d68a	-0.015065799
18	0xbd1cb6b1	-0.038260166
19	0xbc1f62db	-0.009728159
20	0xbd46a03d	-0.04849266
21	0x3c8eeae2	0.017445985
22	0x3d086905	0.03330328
23	0xbe04ef86	-0.12981996
24	0xbdfb42dd	-0.122686125
25	0xbbbfd351	-0.0058540483
26	0x3e5389d4	0.20658046
27	0x3c7c8b14	0.015414018
28	0xbd91afea	-0.07113631
29	0xbd9ecb41	-0.07753611
30	0xbdbfdd8a	-0.09368427
31	0xbc3676a9	-0.011136689
32	0xbd8fcad4	-0.07021108
33	0xbdc1b2de	-0.09457944
34	0xbda9b79b	-0.08286973
35	0x3d91c8f1	0.07118405
36	0x3ca88fbf	0.020576356
37	0x3d8c70de	0.06857465
38	0xbd831c53	-0.06401887
39	0xbc5ad28a	-0.0133558605
40	0x3d8aad11	0.06771291
41	0x3b8784ea	0.0041357176
42	0x3d944fac	0.07241759
43	0xbc0a5422	-0.00844291
44	0xbbaeeb1f	-0.005338087
45	0x3ccd8558	0.025087997
46	0x3d95ecd1	0.0732056
47	0x3cac65b2	0.021044586
48	0xbdc11c0f	-0.0942918
49	0xbd066d19	-0.032818887
50	0x3d1b5df5	0.0379314
51	0xbb033ecb	-0.0020026441
52	0x3d13887b	0.03601883
53	0xbd860df9	-0.06545634
54	0x3db11d2a	0.08648141
55	0xbda1ec94	-0.07906452
56	0xbd701f76	-0.058623753
57	0xbce0fc75	-0.02746413
58	0xbce74f30	-0.028236002
59	0xbe377529	-0.17915787
60	0x3d8fb632	0.07017173
61	0x3e817837	0.2528703
62	0xbdf9a9b6	-0.12190573
63	0xbd7ea075	-0.062164742
64	0x3c38f08e	0.011287821
65	0xbd3acf05	-0.045607585
66	0x3d86de20	0.06585336
67	0x3c6531a6	0.013988888
68	0xbe3845b7	-0.17995344
69	0xbbf5af3d	-0.0074976967
70	0x3d0ac9e5	0.033883948
71	0x3d5843d8	0.052799076
72	0xbba94e06	-0.005166772
73	0xbd62487a	-0.0552449
74	0xbd750f26	-0.0598289
75	0x3ca130c5	0.019676575
76	0x3d1eabff	0.038738247
77	0x3d114826	0.035469197
78	0xbd435b7f	-0.04769468
79	0xbe0f48c2	-0.13992599
80	0xbe167ac8	-0.14695275
81	0x3e2037a8	0.15646231
82	0xbc4b5a15	-0.012411614
83	0x3c661cea	0.01404498
84	0x3a649945	0.00087203487
85	0x3d24237e	0.04007291
86	0xbca76a97	-0.020436568
87	0x3d393736	0.04521867
88	0x3d22a18c	0.039704844
89	0x3be4799c	0.006972505
90	0xbe35dd59	-0.17760219
91	0x3dbf36e4	0.093366414
92	0x3bcd24f9	0.006260511
93	0xbd395605	-0.04524805
94	0xbdcc689e	-0.09980892
95	0xbd5015db	-0.050802093
96	0x3cd193f3	0.025583243
97	0xbcdf9a88	-0.027295366
98	0xbdc37ec4	-0.09545663
99	0xbd856c71	-0.06514824
100	0x3dd91e96	0.10601537
101	0xbb5c5632	-0.0033620712
102	0x3d6c2655	0.057653744
103	0x3cb497c5	0.022045026
104	0xbdbdde9c	-0.09270975
105	0xbd8f6648	-0.070019305
106	0xbc12d635	-0.008962204
107	0x3d6567cf	0.056007203
108	0x3b8311ed	0.0039999397
109	0xbd6f9d8d	-0.05849986
110	0xbd6326c0	-0.055456877
111	0x3d029ad3	0.031885933
112	0x3d531151	0.051530186
113	0xbcb2e1db	-0.021836212
114	0xbe475451	-0.19465758
115	0xbdc829c9	-0.09773595
116	0xbdd660cb	-0.104676805
117	0x3d3754de	0.04475867
118	0x3bf65d25	0.007518428
119	0x3d88178e	0.06645118
120	0x3ca0b7c4	0.019618876
121	0xbbaee5c0	-0.005337447
122	0x3db5758b	0.0886031
123	0xbd8c4cc2	-0.06850578
124	0xbcbdf644	-0.023188718
125	0xbc880fdb	-0.016609123
126	0xbd08b681	-0.033377174
127	0x3e04a715	0.12954362
128	0xbc65d303	-0.01402736
129	0xbca81e91	-0.020522388
130	0x3d41f74a	0.047354974
131	0xbd4b9845	-0.049705762
132	0xbd3d635d	-0.04623734
133	0xbd6fc3b2	-0.05853624
134	0xbe349d66	-0.17638168
135	0x3d88a926	0.066728875
136	0x3cb96524	0.022631235
137	0x3d00e16d	0.031464983
138	0xbd54a54c	-0.051915452
139	0x3d8fd4aa	0.07022984
140	0xbd519c3e	-0.051174395
141	0xbcf8f7e2	-0.030391637
142	0xbb6074a7	-0.0034249218
143	0x3dd2213e	0.10260247
144	0xbd992d73	-0.07479372
145	0xbd9d73f4	-0.07688132
146	0x3da5b6b6	0.0809149
147	0x3dd2e1cf	0.10296976
148	0xbd5c2a1b	-0.053751092
149	0xbd0da942	-0.034585245
150	0xbd1c551d	-0.038167108
151	0xbd0030d6	-0.031296574
152	0x3e0cac4d	0.13737603
153	0x3d585fc8	0.05282572
154	0x3dcfbed9	0.10143823
155	0x3d394243	0.045229208
156	0x3df02078	0.11724943
157	0x3e8d245f	0.2756681
158	0x3d613338	0.054980487
159	0x3d7a8e0b	0.06117062
160	0x3d0f17fb	0.03493498
161	0xbe13e4c4	-0.14442736
162	0xbd78e1c6	-0.06076219
163	0x3d85858e	0.06519614
164	0x3cad2734	0.021136858
165	0x3d2e80e4	0.04260339
166	0x3ccdfbee	0.025144543
167	0xbe166109	-0.14685453
168	0x3cbe7254	0.023247875
169	0xbc6c3153	-0.014416057
170	0x3ce0c2e4	0.027436681
171	0xbd75f7cb	-0.060050767
172	0x3d24eb1c	0.04026328
173	0x3d522c43	0.051311743
174	0xbb71c42d	-0.0036890612
175	0xbd915d1e	-0.07097839
176	0x3d9e9469	0.07743151
177	0xbd530010	-0.05151373
178	0xbd7e08c2	-0.06202007
179	0xbcae0f26	-0.021247458
180	0x3e0afac3	0.1357222
181	0xbb75c3e1	-0.0037500786
182	0xbcb9624f	-0.022629885
183	0xbd3b7724	-0.04576792
184	0x3d3773fc	0.044788346
185	0xbc528618	-0.012849353
186	0x3d3a9bbb	0.045558672
187	0x3d7b3934	0.06133385
188	0xbd73dad1	-0.05953485
189	0xbdf5a4f7	-0.11994355
190	0xbc8b458d	-0.017000938
191	0x3e0d7763	0.13815074
192	0x3dad6642	0.0846677
193	0x3d7022e9	0.058627043
194	0xbd34a5fb	-0.044103604
195	0xbd0451c2	-0.032304533
196	0x3c8979dc	0.01678174
197	0xbc91fff8	-0.01782225
198	0xbdc63c6e	-0.09679495
199	0x3ddd5175	0.10806552
200	0x3e111682	0.14168742
201	0x3bf6431b	0.007515324
202	0xbd27c12b	-0.040955704
203	0xbc33ad74	-0.010966647
204	0x3da0ac08	0.07845312
205	0x3b43a8f2	0.0029855338
206	0x3d11d97b	0.035607796
207	0xbc9a9bf9	-0.018873202
208	0xbbde2e52	-0.006780424
209	0x3cd67b8c	0.026181959
210	0x3d391210	0.04518324
211	0xbd6677e8	-0.056266695
212	0xbe6b3c19	-0.22972144
213	0xbe3ff1d5	-0.18744595
214	0x3ce9dfc3	0.02854908
215	0xbd5fefaa	-0.05467192
216	0x3cdd124b	0.026986262
217	0x3ae4f40e	0.0017467753
218	0xba73e4fe	-0.0009303837
219	0xbd5d40b9	-0.054016802
220	0xbbe7ac5a	-0.0070701065
221	0x3e1bb946	0.15207395
222	0xbd3bc59e	-0.04584276
223	0x3d1dfae9	0.038569365
224	0x3beb352d	0.00717797
225	0x3cef9f94	0.029250897
226	0x3d041dd9	0.032255027
227	0xbca9b765	-0.020717332
228	0xbc83dad9	-0.016095566
229	0x3cc9d1cd	0.024636174
230	0xbd92c002	-0.07165529
231	0xbda1d2fb	-0.079015695
232	0x3caee1a3	0.021347826
233	0xbd711675	-0.058859307
234	0xbc796449	-0.015221664
235	0xbcf25cb2	-0.029585216
236	0x3d3704d8	0.044682354
237	0xbcf53381	-0.029931786
238	0x3d1a0d3e	0.037610285
239	0x3c8b738a	0.017022867
240	0xbc9ad810	-0.018901855
241	0xbd0444ae	-0.03229206
242	0x3cdb546d	0.026773656
243	0x3d73616f	0.05941909
244	0xbe55ae04	-0.20867163
245	0xbc645104	-0.013935331
246	0x3d8c0fe7	0.06838971
247	0xbd0dda51	-0.03463203
248	0x3c3659f2	0.011129843
249	0x3ca043d6	0.019563597
250	0x3cc1b825	0.023647377
251	0x3bba6390	0.0056881383
252	0x3ce48a67	0.027898027
253	0x3c135066	0.008991336
254	0xbdd0dfbb	-0.10198923
255	0x3d201313	0.03908069

fc1.bias f4 [400]
0	0x3e0995b3	0.13436012
1	0x3e39a6d7	0.1813005
2	0xbb576f52	-0.0032872749
3	0x3dbf4408	0.09339148
4	0xbbc7b034	-0.006094003
5	0x3e153b12	0.14573315
6	0x3dd143e8	0.1021803
7	0xbdba0cb7	-0.090844564
8	0x3db578cf	0.08860933
9	0xbdf05ff5	-0.11737052
10	0x3db1cf18	0.08682078
11	0x3e012d30	0.12614894
12	0xbd88400b	-0.0665284
13	0xbe27bc7d	-0.16380496
14	0x3dd02d13	0.10164847
15	0x3da39fda	0.07989474
16	0x3bb1c594	0.0054251645
17	0xbe3bd187	-0.18341647
18	0xbe058900	-0.13040543
19	0x3de19ee1	0.11016632
20	0xbe31b050	-0.17352414
21	0x3e28a3c4	0.16468722
22	0x3d086b5c	0.03330551
23	0xbbfd875e	-0.0077370843
24	0xbdecf13a	-0.11569448
25	0xbd32f40c	-0.043689772
26	0x3d8292fb	0.063756905
27	0xb9f47c6a	-0.00046632002
28	0x3d9ca68f	0.07648956
29	0xbc353025	-0.011058842
30	0xbd2711a4	-0.040788308
31	0x3e01eacc	0.12687224
32	0x3e251743	0.16122155
33	0xbc7f8242	-0.015595021
34	0x3e0d3770	0.13790679
35	0xbdcc5dc7	-0.09978824
36	0xbcfec2b6	-0.031098705
37	0xbdb30c23	-0.08742549
38	0x3d9aaea5	0.07552842
39	0xbdc7b6b2	-0.09751643
40	0xbd4e0963	-0.05030192
41	0xbdf69b59	-0.12041349
42	0x3d8fa9b5	0.07014791
43	0xbe163790	-0.14669633
44	0xbd338697	-0.043829527
45	0xbcc73dde	-0.024321493
46	0x3a2396d9	0.00062404346
47	0x3ca2e52d	0.01988467
48	0x3d9ae405	0.075630225
49	0xbe366c1a	-0.17814675
50	0xbe18120c	-0.14850634
51	0x3a667588	0.0008791317
52	0x3d7afe36	0.06127759
53	0xbd36111a	-0.044449903
54	0xbe1708ce	-0.14749452
55	0x3bc8fe05	0.006133797
56	0x3d57e873	0.052711915
57	0x3dd2211a	0.1026022
58	0xbd615f4a	-0.055022515
59	0x3c97b9bc	0.018521182
60	0x3df220c6	0.11822657
61	0xbd8588b8	-0.06520218
62	0xbde00dbe	-0.10940121
63	0xbd62c598	-0.05536422
64	0xbe12fc00	-0.14353943
65	0x3e145379	0.14484967
66	0xbdfb1e37	-0.122616224
67	0x3c8e6071	0.017379971
68	0x3ced81ee	0.02899262
69	0xbdbff692	-0.093732014
70	0xbd39b63b	-0.045339804
71	0xbc17caf1	-0.009264694
72	0xbb816160	-0.0039483756
73	0xbb972726	-0.004612821
74	0x3db23242	0.08700992
75	0xbe1b4a8c	-0.15165156
76	0x3d71cb66	0.059031866
77	0xbe0c43ef	-0.1369779
78	0xbe5045ad	-0.20339079
79	0xbdcfae9c	-0.10140726
80	0xbe2dcc26	-0.16972408
81	0x3d8e9c63	0.06963422
82	0xbe5db245	-0.21650036
83	0x3c6ac007	0.014328009
84	0xbdcc02e6	-0.0996149
85	0xbe335356	-0.17512259
86	0x3e085bc1	0.13316251
87	0x3e10c465	0.14137419
88	0xbda1d2ab	-0.0790151
89	0xbe0fb0e1	-0.14032318
90	0x3e0ac257	0.13550697
91	0x3df15cef	0.11785304
92	0x3d0a866c	0.0338196
93	0xbdbc1011	-0.09182752
94	0xbdd25e1b	-0.102718554
95	0x3dc2ee02	0.09518053
96	0x3da86733	0.08222809
97	0xbe3b48bb	-0.18289463
98	0xbbe16360	-0.0068783015
99	0xbe0959f5	-0.13413222
100	0xbdf234e6	-0.11826496
101	0x3cc939cd	0.024563694
102	0x3dcb7b16	0.09935586
103	0x3e06c290	0.13160157
104	0x3de86966	0.11348228
105	0xbb008328	-0.0019609425
106	0x3e21ff76	0.15820107
107	0x3dd24e46	0.10268836
108	0xbe0984c0	-0.13429546
109	0xbdb72e33	-0.08944359
110	0x3d0e7b48	0.03478554
111	0x3d62bf4e	0.055358224
112	0x3de85847	0.113449626
113	0xbdaa2692	-0.08308138
114	0x3cb86e96	0.022513669
115	0xbc5bd073	-0.013416397
116	0xbd9de99f	-0.07710575
117	0x3d64342d	0.05571382
118	0x3e406a3a	0.18790522
119	0x3e05f4a0	0.13081598
120	0x3dc8428b	0.09778317
121	0xbdbdddc2	-0.092708126
122	0x3d3ac828	0.04560104
123	0x3e44f96a	0.19235769
124	0xbe47b4b0	-0.1950252
125	0x3d575347	0.052569654
126	0x3de4b4a4	0.11167267
127	0x3dc9025d	0.09814904
128	0xbd884d2b	-0.066553436
129	0x3e07c0e8	0.13257182
130	0x3d888dba	0.06667657
131	0x3c8c5ce8	0.017134145
132	0x3dfd2a07	0.12361532
133	0xbd0ee7bb	-0.034888964
134	0xbe4ad07d	-0.19806094
135	0xbde9845e	-0.114022
136	0xbe67765a	-0.22603741
137	0xbd3e2340	-0.046420336
138	0xbe6000fc	-0.21875376
139	0x3c02eb8e	0.007990731
140	0xbda1feda	-0.07909937
141	0x3ddb3d6c	0.10705075
142	0xbdeec09b	-0.1165783
143	0x3e3690a9	0.17828621
144	0x3d4ed973	0.050500344
145	0xbe3190a7	-0.17340337
146	0xbd48a4f5	-0.04898544
147	0x3b26aa77	0.0025431195
148	0xbe32d948	-0.17465699
149	0x3ddd4eba	0.108060315
150	0xbd137afd	-0.036005963
151	0x3ccc9465	0.024973104
152	0xbdf46fc8	-0.11935383
153	0x3d04ccdc	0.03242193
154	0xbe19f9de	-0.15036723
155	0x3e15f603	0.14644627
156	0xbdc11047	-0.09426933
157	0xbe908f29	-0.28234223
158	0xbcec37da	-0.028835226
159	0x3e1eb60b	0.15499131
160	0x3de81c86	0.113335654
161	0xbc1ec52d	-0.009690565
162	0xbe46e674	-0.19423848
163	0xbd43c472	-0.047794767
164	0x3e0704a0	0.13185358
165	0xbe69198f	-0.22763656
166	0xbda0963f	-0.07841157
167	0xbc726473	-0.014794457
168	0xbe14c600	-0.14528656
169	0x3e077093	0.13226537
170	0x3dff3368	0.12460977
171	0x3db3ee48	0.08785683
172	0x3dab3daf	0.083613746
173	0xbe8d78cf	-0.27631232
174	0x3e366934	0.1781357
175	0xbe42a6ae	-0.19008896
176	0xbe161742	-0.1465731
177	0x3ca50ed2	0.020148668
178	0xbbfc1e8c	-0.007694071
179	0x3da24fe5	0.07925395
180	0xbdaeca10	-0.08534634
181	0xbe063334	-0.1310547
182	0x3cd7a05d	0.026321584
183	0x3dc9732b	0.0983642
184	0xbb87da91	-0.004145928
185	0xbddc334a	-0.1075197
186	0x3d8eec2c	0.0697864
187	0xbd39a6ef	-0.045325216
188	0xba585b40	-0.00082533434
189	0xbd76ca59	-0.060251568
190	0x3d29537d	0.041339386
191	0xbe06ef40	-0.13177204
192	0xbd54b513	-0.0519305
193	0x3d0818f0	0.033226907
194	0xbdec000f	-0.11523449
195	0xbd8e284f	-0.06941282
196	0xbdfae3de	-0.122504935
197	0xbe311a75	-0.17295249
198	0xbd743f25	-0.05963053
199	0xbbbdc506	-0.0057913093
200	0xbc825c48	-0.015913144
201	0x3da81d22	0.08208682
202	0x3d02e96a	0.031960882
203	0x3d969c56	0.073540375
204	0xbc0e6380	-0.008690715
205	0x3d18e28e	0.037325434
206	0x3d1fafe3	0.038986098
207	0xbde5e8b0	-0.11226022
208	0xbd969657	-0.07352894
209	0xbdb93c02	-0.09044649
210	0x3ba9e514	0.005184779
211	0xbe44bda5	-0.19212969
212	0xbe3fcc7d	-0.1873035
213	0x3dcdd775	0.10050861
214	0x3d9c23aa	0.0762399
215	0xbae625c5	-0.0017558864
216	0xbdb65d4f	-0.08904516
217	0xbdef302b	-0.11679109
218	0x3ba27b6a	0.0049585598
219	0x3e2a627e	0.16639134
220	0xbd080dda	-0.033216335
221	0xbdef7cb0	-0.11693704
222	0x3dca9414	0.09891525
223	0xbdd494b8	-0.10379928
224	0xbd22cd66	-0.039746664
225	0x3c5479ec	0.012968522
226	0x3e33de14	0.17565185
227	0xbd8601f1	-0.06543339
228	0xbdfd8df8	-0.12380594
229	0xbe225594	-0.15852958
230	0xbe22fa55	-0.15915807
231	0xbe4dc250	-0.20093656
232	0xbe149621	-0.14510395
233	0x3c74fd01	0.014952899
234	0x3dc872dd	0.097875334
235	0x3cb8467b	0.022494545
236	0x3deca686	0.11555199
237	0xbdc0c0a4	-0.09411743
238	0x3d72aa2c	0.05924432
239	0xbe4fbefb	-0.20287697
240	0x3e4e1c42	0.20127967
241	0x3dd2e86e	0.10298239
242	0x3dcc22d5	0.09967581
243	0xbdc0c3a0	-0.094123125
244	0x3df5faf9	0.1201076
245	0xbe32a750	-0.17446637
246	0xbcff2bba	-0.03114878
247	0xbd80abf6	-0.06282799
248	0xbdea2e75	-0.11434642
249	0xbdd11251	-0.10208572
250	0x3dd8b00d	0.10580454
251	0xbbb3cfcd	-0.0054874183
252	0x3da7f7a0	0.082015276
253	0x3d3c9f63	0.04605044
254	0xbda979f6	-0.08275215
255	0x3e2025c4	0.15639406

fc2.weight f4 [300, 400]
0	0x3dd26b77	0.102744035
1	0x3af8cf6b	0.0018982714
2	0x3e49fcb7	0.1972531
3	0xbd9d3660	-0.07676387
4	0x3db59118	0.08865565
5	0x3e1ad597	0.1512054
6	0x3e004b44	0.12528712
7	0x3e5010df	0.20318936
8	0x3d5f548e	0.054523997
9	0xbe2bd040	-0.1677866
10	0xbdc38d8c	-0.09548482
11	0xbc708fcd	-0.014682722
12	0x3de32b81	0.11092282
13	0x3db525d5	0.088451065
14	0x3dbceace	0.09224473
15	0xbde7f48e	-0.11325942
16	0xbd969990	-0.073535085
17	0x3cfae68a	0.030627508
18	0xbc1f7067	-0.009731389
19	0x3d80279d	0.06257556
20	0x3dc6cc82	0.097069755
21	0x3bcd2fc4	0.0062617976
22	0x3d57188f	0.052513655
23	0x3d8d4955	0.068987526
24	0x3e387976	0.18015084
25	0xbc4ced87	-0.012507803
26	0x3c47b488	0.012189038
27	0x3dd0233d	0.10162971
28	0x3c8240e4	0.015900083
29	0xbd1d3477	-0.038380112
30	0x3e28b871	0.16476609
31	0x3d245d95	0.04012831
32	0x3b128d41	0.0022362026
33	0x3d1fec1d	0.039043535
34	0xbc021b57	-0.007941089
35	0x3e354773	0.17703037
36	0xbbf5613f	-0.0074883993
37	0x3d681e67	0.05666962
38	0xbe09eb22	-0.13468602
39	0xbc84a303	-0.016191011
40	0x3d6043b8	0.05475208
41	0x3b8bcc4d	0.004266298
42	0xbca432a6	-0.020043682
43	0x3e07f4df	0.13277005
44	0xbde31ce2	-0.11089493
45	0xbd1666ab	-0.036719006
46	0xbc5318da	-0.012884343
47	0xbde14792	-0.10999979
48	0x3d212cb7	0.039349284
49	0xbd9d92da	-0.07694025
50	0xbe0bb797	-0.13644253
51	0x3bf7a701	0.00755775
52	0x3e35b802	0.17745975
53	0xbc2dd4ff	-0.010609864
54	0x3d48f64c	0.049063012
55	0x3d9941ef	0.07483279
56	0xbda81c56	-0.0820853
57	0x3c692dad	0.014232081
58	0xbe32bf37	-0.17455755
59	0x3dc4a58b	0.09601887
60	0xbd32680c	-0.043556258
61	0x3d906ae7	0.0705164
62	0x3dd70552	0.10499062
63	0xbdf393e3	-0.118934415
64	0x3db0773e	0.08616494
65	0x3cc60c65	0.024175832
66	0x3e1e595a	0.15463772
67	0x3d79ee15	0.06101807
68	0xbca9cd76	-0.020727854
69	0x3b81bb80	0.0039591193
70	0xbe234301	-0.15943529
71	0x3d1660ca	0.0367134
72	0x3e226674	0.15859395
73	0x3ca40f8c	0.020026945
74	0x3d85815c	0.06518814
75	0xbd543778	-0.05181071
76	0xbbfdcb8c	-0.007745212
77	0x3d134485	0.035954017
78	0x3dbff66b	0.093731724
79	0x3caf2c3b	0.021383395
80	0x3d78241a	0.060581304
81	0x3e06416c	0.13110894
82	0xbda73ac3	-0.08165505
83	0x3cfb6407	0.030687345
84	0xbdbe275a	-0.092848495
85	0xbd27778f	-0.040885504
86	0x3cd21049	0.025642531
87	0xbe4fde45	-0.20299633
88	0xbe083837	-0.13302694
89	0xbd6c823f	-0.0577414
90	0x3dffae5e	0.1248443
91	0xbdc321eb	-0.09527954
92	0xbd1cc1a8	-0.038270622
93	0xbda50c2e	-0.08058964
94	0xbe4a77c1	-0.19772245
95	0x3e2a8dda	0.16655675
96	0xbe5237d8	-0.20529115
97	0xbda1b065	-0.07894973
98	0xbc5e087b	-0.013551827
99	0x3d84491d	0.06459258
100	0xbd17e44c	-0.037082955
101	0x3db04ccf	0.086084
102	0xbdf0ea87	-0.117634825
103	0xbe5e2775	-0.21694739
104	0xbdfff857	-0.12498539
105	0x3d908ea8	0.070584595
106	0xbd8a5fe8	-0.06756574
107	0x3d824fb1	0.06362856
108	0xbe088fac	-0.13336056
109	0xbccb84c7	-0.024843587
110	0x3dc75fbd	0.097350575
111	0x3e2be98b	0.16788308
112	0x3d14d957	0.036340084
113	0xbe7f92ec	-0.2495839
114	0x3d7648b5	0.060127933
115	0x3b732895	0.0037103046
116	0xbe26db1e	-0.16294524
117	0xbdbacf0c	-0.09121522
118	0x3d065186	0.03279259
119	0x3d5e12a9	0.054217014
120	0x3c95eefd	0.018302435
121	0xbcfa561f	-0.030558644
122	0x3df2ff2e	0.11865078
123	0xbdbaff3d	-0.09130714
124	0x3c427224	0.011868034
125	0x3d44dcfa	0.048062302
126	0x3cb280a7	0.021789862
127	0xbe41556f	-0.18880247
128	0xbcb27fd8	-0.021789476
129	0x3d56cdad	0.05244224
130	0x3d55e445	0.052219648
131	0x3e465be0	0.19370985
132	0x3e08b136	0.1334885
133	0xbdcf7c3b	-0.10131117
134	0x3d3b9a28	0.04580131
135	0xbe38285d	-0.17984147
136	0x3cfdf446	0.031000268
137	0x3e30655b	0.17226164
138	0x3d11ff85	0.035644073
139	0x3e9afb3b	0.302698
140	0x3b10079e	0.0021977196
141	0x3dada080	0.084778786
142	0xbc58bc5a	-0.0132285
143	0xbde8b563	-0.11362722
144	0x3d6aefbd	0.05735754
145	0x3d95fb0d	0.07323275
146	0x3c6d8066	0.014495945
147	0x3d13191d	0.03591262
148	0x3deac567	0.11463433
149	0x3d366572	0.04453034
150	0xbe201637	-0.15633474
151	0x3e86d8ff	0.2633743
152	0xbe19fb4d	-0.1503727
153	0x3d82a887	0.063798
154	0x3e447e73	0.19188862
155	0xbd62eebf	-0.055403467
156	0x3a092b3d	0.0005232578
157	0xbd7dd2fc	-0.06196879
158	0x3cbfa254	0.023392834
159	0x3e1aab58	0.15104425
160	0xbe114ed2	-0.14190224
161	0xbe16db50	-0.14732099
162	0x3da9be9f	0.08288311
163	0x3cc9a213	0.024613416
164	0xbde1ace2	-0.11019303
165	0x3df18d5e	0.11794542
166	0xbe6a8a1f	-0.22904252
167	0xbc2cc005	-0.010543828
168	0xbd22904a	-0.039688386
169	0xbd5df53c	-0.05418895
170	0x3e19bdd1	0.15013815
171	0xbdb58b9a	-0.088645175
172	0x3d63ad74	0.05558534
173	0x3d751d5f	0.059842464
174	0x3a7e1eb9	0.0009693909
175	0x3e480055	0.19531377
176	0x3c47d09b	0.0121957315
177	0xbe599015	-0.21246369
178	0x3ce2353d	0.027613277
179	0xbc80d3b7	-0.015725954
180	0x3d2c9a09	0.042139087
181	0xbd241b60	-0.04006517
182	0xbde2edb4	-0.110804945
183	0x3ba9392a	0.005164285
184	0xbd708bbb	-0.058727007
185	0xbd13ef9a	-0.036117174
186	0xbd26699b	-0.040628057
187	0x3dc7d903	0.097581886
188	0x3e2ed33d	0.17072769
189	0xbd818e03	-0.06325915
190	0x3dc212d0	0.094762444
191	0x3e4ca9ae	0.19986603
192	0x3df8d6a3	0.12150314
193	0xbd56983c	-0.052391276
194	0xbd972417	-0.073799305
195	0xbd8ea048	-0.06964165
196	0x3d38e47c	0.045139775
197	0xbc85c5f0	-0.016329736
198	0x3e2f36ff	0.17110823
199	0xbcfdd80c	-0.030986808
200	0xbb1c615d	-0.0023861744
201	0xbc03b27e	-0.008038161
202	0x3d2495aa	0.040181793
203	0xbcec2bd7	-0.028829498
204	0xbdaf7c92	-0.08568682
205	0x3d855089	0.065095015
206	0xbd5d1c96	-0.05398234
207	0xbd989301	-0.07449914
208	0x3d882531	0.06647719
209	0x3e3666b6	0.17812619
210	0xbda5b628	-0.08091384
211	0xbdd5e56d	-0.1044415
212	0xbd36a636	-0.044592105
213	0xbd8dd5b1	-0.06925524
214	0xbd9b6ab1	-0.07588709
215	0x3ce4ea17	0.027943654
216	0xbda8648c	-0.08222303
217	0xbdff25db	-0.12458392
218	0xbe002f41	-0.12518026
219	0x3cfc0c05	0.03076745
220	0x3debff78	0.11523336
221	0xbbbfdcf6	-0.005855198
222	0x3c4c91c7	0.012485928
223	0xbdd1e725	-0.102491654
224	0xbe7073dc	-0.23481697
225	0xbd2fd483	-0.042927276
226	0xbcceee83	-0.025260216
227	0x3da564a9	0.0807584
228	0x3c888728	0.01666601
229	0x3da9083d	0.082535245
230	0xbe34ae03	-0.17644505
231	0x3ccaf9c9	0.02477731
232	0xbe010cc4	-0.12602526
233	0xbd5bda40	-0.053674936
234	0x3d718f97	0.05897483
235	0xbc52f936	-0.012876799
236	0xbd063395	-0.032764036
237	0xbd7fe6ec	-0.062476084
238	0xbd9e4739	-0.077284284
239	0xbd29aaae	-0.04142254
240	0x3bc4aba0	0.0060019046
241	0xbb79b521	-0.0038102346
242	0xbd445d35	-0.04794045
243	0x3dc3fa54	0.09569231
244	0xbd4fa93c	-0.050698504
245	0x3c63aa92	0.013895648
246	0x3d01a2fd	0.03164958
247	0x3db45ea7	0.08807116
248	0x3caa3970	0.020779341
249	0x3e1eb56a	0.15498891
250	0x3e0c7dca	0.1371986
251	0xbd3de782	-0.04636336
252	0xbd81433a	-0.063116506
253	0x3d2bbacb	0.041926187
254	0xbdb247e0	-0.08705115
255	0x3ded182f	0.11576878

fc2.bias f4 [300]
0	0x3c60c8e0	0.013719767
1	0x3c94f3ce	0.018182661
2	0xbd061750	-0.032737076
3	0xbd22efae	-0.039779358
4	0x3dbfb0cb	0.093598925
5	0xbcebddd0	-0.028792292
6	0x3ccef1ff	0.025261877
7	0xbd687b10	-0.056757987
8	0xbd13f9cf	-0.036126908
9	0xbd0c0e43	-0.03419329
10	0xbc574661	-0.013139338
11	0xbcb7d837	-0.022441966
12	0xbbc73071	-0.0060787727
13	0xbc8627ad	-0.01637634
14	0xbcbb4838	-0.022861585
15	0x3d6d4790	0.057929575
16	0xbce55fd1	-0.02799979
17	0xbdb59a22	-0.08867289
18	0xbbb9a4d6	-0.005665402
19	0x3d86dac1	0.06584693
20	0x3c8a9ef7	0.016921503
21	0x3cbd4258	0.023102924
22	0xbd7c88a2	-0.06165374
23	0x3c6aa788	0.014322169
24	0x3c559ccd	0.0130378725
25	0x3d55668a	0.052099742
26	0x3d00112f	0.031266388
27	0x3cb2e137	0.021835906
28	0xbb946c3e	-0.004529505
29	0xbd06eb13	-0.032939028
30	0xbbc62e3e	-0.006047993
31	0x3d0b68e8	0.034035593
32	0xbbcc821e	-0.006241097
33	0x3d06a627	0.0328733
34	0xbbb09583	-0.005388917
35	0xbc37f614	-0.011228103
36	0x3cf4455b	0.029818228
37	0xbdd7c79f	-0.105361216
38	0x3ab3769c	0.0013691965
39	0xbb7944d2	-0.0038035405
40	0xbcac23ba	-0.02101313
41	0x3c582147	0.013191528
42	0xbac8702e	-0.0015292221
43	0x3d02f08d	0.03196769
44	0x3dd88ff3	0.10574331
45	0x3d301105	0.04298498
46	0x3d998ef9	0.07497973
47	0x3c799d5f	0.015235274
48	0xbcfa23db	-0.030534675
49	0xbd442517	-0.047886934
50	0xbccba399	-0.024858283
51	0xbc0de7fa	-0.008661265
52	0xbd12e2e3	-0.035860907
53	0xbca0ac02	-0.01961327
54	0x3b937c7e	0.0045009246
55	0x3bcd46ee	0.006264559
56	0xbc642576	-0.013924947
57	0xbcd003f2	-0.025392506
58	0xbc31a771	-0.010843144
59	0xbcd7c217	-0.026337666
60	0xbce521b6	-0.027970176
61	0xbcce34b9	-0.025171624
62	0xbd3d6773	-0.046241235
63	0x3d2913ad	0.04127853
64	0x3d7abb57	0.061213817
65	0x3c5d7d94	0.01351871
66	0x3c0564a7	0.008141673
67	0xbc95ad44	-0.018271096
68	0xbdffbac0	-0.124867916
69	0xbdc96247	-0.09833198
70	0x3ca141cd	0.019684697
71	0xbcd752fe	-0.026284691
72	0xbbba2096	-0.005680154
73	0x3dfed6b2	0.12443294
74	0xbd309c2e	-0.043117695
75	0xbd80c0c2	-0.06286766
76	0xbd8ab1fa	-0.067722276
77	0x3c9a48cb	0.018833539
78	0xbdb03ab2	-0.08604945
79	0xbd9fc0d2	-0.078004494
80	0xbd055b67	-0.03255787
81	0xbd05cd4e	-0.032666497
82	0xbd6448e3	-0.055733573
83	0x3bac52ef	0.00525891
84	0x3c961442	0.018320207
85	0xbd85fb14	-0.0654203
86	0xbc2345a0	-0.00996533
87	0xbce05a20	-0.027386725
88	0xbd6845f6	-0.056707345
89	0xbd88405f	-0.06652903
90	0xbd171d3b	-0.03689311
91	0xbbf74c84	-0.007546963
92	0xbd2d59d1	-0.042321984
93	0xbb3beeb7	-0.002867622
94	0x3d0e4a9e	0.03473913
95	0xbe0ccb31	-0.13749386
96	0xbd99eb21	-0.075155504
97	0xbc85c731	-0.016330333
98	0xbbad5006	-0.0052890806
99	0x3cc1d1dd	0.02365964
100	0xbd418933	-0.047249984
101	0x3d5906a8	0.052984864
102	0x3d9f8b32	0.07790221
103	0xbcc523ed	-0.024064982
104	0x3cfbf7ad	0.03075775
105	0x3d7e2cb7	0.062054362
106	0xbd979fa7	-0.07403498
107	0xbc8fd62f	-0.017558185
108	0xbdbf8c6a	-0.09352954
109	0xbcf5e68c	-0.03001716
110	0xbcf70d75	-0.030157784
111	0x3c118afa	0.008883232
112	0xbb90a786	-0.0044145016
113	0x3d6b598c	0.057458445
114	0xbd278915	-0.040902216
115	0x3c117834	0.008878756
116	0x3cace3ad	0.021104658
117	0xbd40511c	-0.046952352
118	0xbd648225	-0.055788178
119	0xbcca6174	-0.024704672
120	0x3d4aaf2b	0.04948346
121	0x3bd22ebf	0.006414264
122	0xbcc24e6c	-0.023719035
123	0x3db8d71d	0.090254046
124	0x3cd43102	0.025902275
125	0x3dda210f	0.10650837
126	0xbd8524af	-0.065011375
127	0xbdc1be3b	-0.09460112
128	0x3b83afe4	0.0040187705
129	0xbad4ac1e	-0.0016225611
130	0xbd8603ac	-0.06543669
131	0x3d117935	0.035515983
132	0x3a8fcf9b	0.0010971905
133	0x3d2a91b4	0.04164286
134	0xbdc1e9b5	-0.09468404
135	0x3d73bbbb	0.059505206
136	0x3b8d88b8	0.0043192767
137	0xbd3fc1cb	-0.046815675
138	0x3d932468	0.07184678
139	0x3d4547af	0.048164066
140	0x3cc99acf	0.024609951
141	0x3c3fc9c5	0.01170582
142	0xbd12946f	-0.03578609
143	0x3cc3ed98	0.023917004
144	0xbc5164a0	-0.0127803385
145	0xbda2e027	-0.0795291
146	0xbd7232a1	-0.059130315
147	0xbdaad6ef	-0.083417766
148	0x3d2429b4	0.040078834
149	0xbcbb6393	-0.02287463
150	0xbda9ba79	-0.0828752
151	0xbd263702	-0.040579803
152	0xbc314f63	-0.01082215
153	0x3be49f78	0.006977018
154	0xbbb6f099	-0.0055828807
155	0xbcb14be2	-0.021642629
156	0xbca6164a	-0.0202743
157	0x3d875fe9	0.0661009
158	0x3cf73837	0.030178173
159	0xbd09f9dc	-0.03368555
160	0xbd9a3ac6	-0.075307414
161	0xbd8ccc39	-0.0687489
162	0x3c6ff481	0.014645697
163	0x3cd283db	0.02569764
164	0xbd52ff27	-0.051512863
165	0xbb87d6f6	-0.0041454984
166	0xbc653dcd	-0.013991785
167	0x3c33dc56	0.010977825
168	0xbd9410d8	-0.07229775
169	0xbd5f49c6	-0.054513715
170	0xbcece3da	-0.028917242
171	0xbd2ef230	-0.042711437
172	0x3c0d5988	0.008627303
173	0xbc8503fa	-0.016237248
174	0xbd2b30a4	-0.041794434
175	0xbd6ea635	-0.058263976
176	0xbd187688	-0.037222415
177	0x3d00572a	0.031333126
178	0xbd29a54b	-0.0414174
179	0x3d3e6911	0.046486918
180	0x3e14add4	0.14519435
181	0x3c5f97a8	0.0136469975
182	0x39b33f90	0.00034188898
183	0x3d110ad1	0.035410706
184	0x3ca00b8a	0.019536752
185	0xbd96e37a	-0.073676065
186	0xbd9952cb	-0.07486495
187	0xbd170d54	-0.036877945
188	0xbcbd530e	-0.023110893
189	0xbc15d1c1	-0.0091442475
190	0xbd47638f	-0.04867893
191	0x3d4b8015	0.049682695
192	0xbd04e3f9	-0.032443974
193	0xbda61980	-0.081103325
194	0xbca294eb	-0.0198464
195	0xbc7e33a1	-0.015515239
196	0xbc9832b5	-0.018578866
197	0x3d3cbf5e	0.04608094
198	0xbcd3b9e6	-0.02584548
199	0x3d202159	0.039094303
200	0xbcfbe41b	-0.030748418
201	0xbc766415	-0.01503851
202	0xba9e0d12	-0.0012058339
203	0xbd3d8629	-0.046270523
204	0xbcb4ceab	-0.022071203
205	0x3d83dfed	0.06439195
206	0x3d2b95d4	0.041890934
207	0xbda56f5d	-0.080778815
208	0x3d74f079	0.059799645
209	0xbc80ac47	-0.015707148
210	0x3d1b2a19	0.037881944
211	0xbc692acb	-0.014231394
212	0xbc5a516d	-0.0133250775
213	0xbdc12e58	-0.094326675
214	0xbda1cfef	-0.07900988
215	0xba8cf467	-0.001075399
216	0x3d4d8e15	0.050184328
217	0xbd13a294	-0.03604372
218	0xbc831b11	-0.016004117
219	0xbc5a2a11	-0.0133156935
220	0xbd12e75d	-0.035865176
221	0xbdb3b52b	-0.087747894
222	0xbba98780	-0.0051736236
223	0x3c35db7f	0.011099695
224	0xbda6034d	-0.08106098
225	0xbccd1839	-0.025035964
226	0x3cc6f77f	0.024287937
227	0xbd8096e3	-0.06278779
228	0x3deb0a5d	0.11476586
229	0x3d3f390b	0.04668526
230	0xbc91b099	-0.017784404
231	0xbcbf7f55	-0.023376146
232	0x3d8b364c	0.06797466
233	0xbdc52a8b	-0.09627255
234	0x3cea48a7	0.028599096
235	0xbddcc8a2	-0.10780455
236	0xbd87a632	-0.06623496
237	0xbc787748	-0.015165158
238	0xbdaa8f39	-0.08328099
239	0xbd1e3400	-0.03862381
240	0xbd3265ac	-0.043553993
241	0x39d6af28	0.00040947762
242	0x3c9edc2e	0.0193921
243	0xbd237e6d	-0.03991549
244	0xbd3278d5	-0.043572266
245	0x3c617003	0.013759616
246	0xbc815aec	-0.015790425
247	0xbca9fcb4	-0.020750381
248	0xbd608f0f	-0.05482393
249	0x3dadbcd8	0.08483285
250	0xbd586077	-0.05282637
251	0x3d77caf0	0.06049627
252	0xbd20bc73	-0.03924222
253	0xbc29f03d	-0.010372219
254	0x3cb94c60	0.022619426
255	0x3cd806d6	0.026370447

fc3.weight f4 [4, 300]
0	0x3ea957b9	0.3307474
1	0xbd017bc7	-0.031612184
2	0x3eb9fda3	0.36326322
3	0x3e0c1df4	0.13683301
4	0xbb8cdecd	-0.004299021
5	0xbd81973b	-0.06327673
6	0x3ce60742	0.028079633
7	0x3e4c0413	0.19923429
8	0x3d26051e	0.040532224
9	0xbe0bda7b	-0.13657562
10	0xbe4bb34d	-0.19892617
11	0xbe28c79e	-0.16482398
12	0xbe48ce2a	-0.19609895
13	0x3e8ebc84	0.278782
14	0x3d75b7c6	0.059989713
15	0x3eb735cf	0.3578324
16	0xbde7c162	-0.11316182
17	0xbe1c07c7	-0.15237342
18	0x3d95ee58	0.07320851
19	0x3ed8a072	0.4230991
20	0xbd898539	-0.06714863
21	0x3ebe3262	0.37147814
22	0x3d4ae5b9	0.049535487
23	0xbde4bee6	-0.111692235
24	0xbe2cab11	-0.16862132
25	0x3e67bdf3	0.22631054
26	0x3dd134ff	0.10215186
27	0x3e31bdaf	0.17357515
28	0xbe3e42a2	-0.18580106
29	0xbe86c599	-0.2632263
30	0x3d4e8416	0.050418936
31	0x3ea7f7b4	0.3280617
32	0x3e893759	0.2680004
33	0x3c8ac90a	0.016941566
34	0x3d873c52	0.06603302
35	0x3c99ee90	0.018790513
36	0xbeaa4261	-0.33253768
37	0x3e63df42	0.22253135
38	0x3e81f120	0.25379276
39	0x3dc13f9d	0.094359614
40	0xbdad9899	-0.08476371
41	0x3db8b3ad	0.090186454
42	0x3eb004cd	0.34378663
43	0x3ecee00b	0.40405306
44	0x3ee13f04	0.4399339
45	0x3f1c41cc	0.610379
46	0x3f1c6c83	0.61103076
47	0x3ef70ba9	0.48251083
48	0xbd886880	-0.06660557
49	0xbdc0bb29	-0.09410698
50	0xbdf2a09e	-0.118470415
51	0x3eba255d	0.3635663
52	0x3cc68afe	0.024236199
53	0x3ded03a4	0.1157296
54	0x3da8e0dc	0.082460135
55	0x3c949881	0.018139126
56	0xbe391664	-0.18074948
57	0xbeb134c0	-0.34610558
58	0xbd451100	-0.048111916
59	0xbd613e38	-0.054990977
60	0x3e38c34c	0.1804325
61	0x3ea03bd1	0.31295636
62	0xbe2fc762	-0.17165902
63	0xbe0d797e	-0.13815877
64	0xbd918d7c	-0.07107064
65	0x3e82e817	0.25567695
66	0x3ea53234	0.32264864
67	0x3e157bd3	0.14598016
68	0xbe85d89d	-0.26141825
69	0xbddbab68	-0.107260525
70	0xbd2fcc3b	-0.04291938
71	0x3f25c7b6	0.6475786
72	0x3d255155	0.040360767
73	0x3ed10752	0.40825897
74	0xbe93987d	-0.28827277
75	0x3e8eeb1c	0.2791375
76	0x3e40f645	0.18843944
77	0x3f13d212	0.57742417
78	0xbeba8c8b	-0.3643535
79	0xbe1dcf11	-0.15411021
80	0xbdbd4d96	-0.09243314
81	0xbe8f2df1	-0.27964738
82	0xbe9d47a0	-0.30718708
83	0x3db99352	0.09061302
84	0xbd87056d	-0.06592832
85	0xbe96eb06	-0.29476184
86	0xbde705d9	-0.11280412
87	0xbe29044a	-0.16505542
88	0xbe472dfd	-0.19451137
89	0xbe73f02c	-0.23822087
90	0xbe866b21	-0.26253608
91	0xbe37a3b2	-0.17933539
92	0xbd97feeb	-0.074216686
93	0x3ed3ec93	0.4139143
94	0x3e672d09	0.22575773
95	0xbf354e6f	-0.70822805
96	0xbdccaaa1	-0.099934824
97	0x3d2aa484	0.0416608
98	0x3e2abe4b	0.16674154
99	0xbdae1d06	-0.085016295
100	0xbd10fceb	-0.03539745
101	0xbe9d902f	-0.30774066
102	0x3f0c1c23	0.54730433
103	0xbe5e1523	-0.2168775
104	0x3efb47bf	0.49078175
105	0x3e4acee8	0.19805491
106	0xbdd432e3	-0.10361268
107	0x3ee4ec95	0.44711748
108	0x3b84940f	0.0040459703
109	0xbd8bed4d	-0.06832371
110	0x3e3f3f3a	0.18676463
111	0xbe5c39a6	-0.21506366
112	0xbdeb864e	-0.11500226
113	0x3ddf8e26	0.109157845
114	0x3e07fb55	0.1327947
115	0x3e10eca0	0.14152765
116	0xbe7ba916	-0.2457622
117	0xbdd7c3a3	-0.105353616
118	0x3eb3756c	0.35050523
119	0x3dadbae3	0.084829114
120	0x3e46c073	0.19409351
121	0xbe976ce4	-0.29575264
122	0xbe0ce1b3	-0.13757972
123	0x3ebb9666	0.36638182
124	0x3ced5894	0.028972901
125	0x3ee86861	0.45392135
126	0x3d603549	0.054738317
127	0x3d1a0356	0.037600838
128	0xbd81a155	-0.063296
129	0x3e8985fb	0.2686003
130	0xbebb7040	-0.36609077
131	0x3cfc4162	0.030792896
132	0xbe0b24ef	-0.13588308
133	0xbe543790	-0.2072432
134	0xbeaf3a73	-0.3422428
135	0x3f0efd3e	0.55855167
136	0xb9bf866d	-0.00036530514
137	0x3e051e99	0.12999953
138	0xbe4b10eb	-0.19830672
139	0x3f0090b1	0.5022078
140	0xbde3ef4b	-0.11129626
141	0xbda1471c	-0.07874891
142	0x3cadf141	0.021233203
143	0xbd35a96d	-0.04435103
144	0x3d2851b5	0.041093547
145	0xbe03cf36	-0.12872013
146	0xbe2f2c5f	-0.1710677
147	0x3e7b4b30	0.245404
148	0xbc0a7a3e	-0.008451996
149	0xbd490e63	-0.049085986
150	0xbd5179f4	-0.051141694
151	0x3e70008c	0.23437709
152	0xbe4bd3fd	-0.19905086
153	0x3c903815	0.017604867
154	0xbe52d25b	-0.20588057
155	0x3e047bb1	0.1293781
156	0xbdc87d4e	-0.09789525
157	0x3ef57e56	0.4794795
158	0x3d655af1	0.05599493
159	0x3c540d3f	0.012942611
160	0x3dae0204	0.08496478
161	0x3f0a0aed	0.5392292
162	0xbe104e6b	-0.14092414
163	0xbe7b5f9f	-0.24548195
164	0xbe726c84	-0.23674208
165	0xbdf354e2	-0.118814245
166	0xbd3407e4	-0.043952838
167	0xbe502ea8	-0.20330298
168	0x3dcbe35f	0.09955477
169	0xbd4dfe22	-0.050291188
170	0xbe808cfb	-0.2510756
171	0x3daf0bd0	0.08547175
172	0x3ece62a3	0.4030963
173	0x3e96294d	0.29328385
174	0xbd94ab0f	-0.07259189
175	0xbe364fbf	-0.17803858
176	0xbe98b33d	-0.29824248
177	0xbe2649a0	-0.16239023
178	0xbe9d1241	-0.3067799
179	0x3e93d2b0	0.2887168
180	0x3f0341e5	0.5127242
181	0xbe826009	-0.25463894
182	0xbe1c3994	-0.1525634
183	0xbe44c009	-0.1921388
184	0x3e74a10c	0.2388956
185	0xbcfd4ca4	-0.030920334
186	0xbd7a25b0	-0.061071098
187	0xbd801ec7	-0.0625587
188	0x3e8bc9cc	0.27302396
189	0x3d99c238	0.075077474
190	0x3cc327a2	0.02382261
191	0x3c47feeb	0.012206773
192	0xbe8bc51a	-0.27298814
193	0x3f005df0	0.5014334
194	0xbe262066	-0.16223297
195	0xbe015241	-0.12629034
196	0xbdc11ed7	-0.0942971
197	0xbe0ecfa3	-0.13946395
198	0xbe97805c	-0.29590118
199	0xbe3f140f	-0.18659995
200	0x3ef62a05	0.48078933
201	0x3eb83297	0.35976097
202	0xbe63b077	-0.22235285
203	0x3ea7ca1a	0.3277138
204	0xbdfddba7	-0.12395411
205	0xbe369344	-0.17829615
206	0xbed48107	-0.4150469
207	0xbe07d88b	-0.13266198
208	0x3e801da5	0.25022617
209	0x3e8b27fd	0.27178946
210	0xbe131b06	-0.14365777
211	0xbe671471	-0.22566392
212	0xbd03658d	-0.03207927
213	0x3f67a69e	0.9048861
214	0xbe3f4ba6	-0.18681201
215	0x3ee26368	0.44216466
216	0x3bc207da	0.005921346
217	0x3f049578	0.5179057
218	0xbdc51d82	-0.09624769
219	0x3eb349e3	0.3501731
220	0xbe2b6ef1	-0.1674154
221	0x3e30e251	0.17273833
222	0x3da62bc6	0.08113818
223	0x3ec91998	0.3927734
224	0xbe71ecfa	-0.23625556
225	0xbdbd6164	-0.092470914
226	0x3e2a191c	0.16611141
227	0xbe4a6840	-0.1976633
228	0x3ef805ea	0.48442012
229	0x3f0604ae	0.5235089
230	0xbd0cd853	-0.03438599
231	0x3da8a957	0.08235424
232	0xbe8abad5	-0.27095667
233	0xbec9f3b6	-0.3944375
234	0xbe1fb6f5	-0.15597136
235	0x3eda7e75	0.42674604
236	0xbcd268f4	-0.025684811
237	0xbe1ec127	-0.1550337
238	0xbe09f1c7	-0.13471137
239	0x3e115970	0.14194274
240	0x3cb41bdc	0.02198594
241	0xbe7b30cb	-0.24530332
242	0xbe1a409f	-0.15063713
243	0xbe876328	-0.26442838
244	0xbd43b304	-0.047778144
245	0x3ee31bbf	0.44357106
246	0x3d5dcd9f	0.054151174
247	0xbdea0da0	-0.1142838
248	0x3e8609bb	0.261793
249	0xbe85fa7b	-0.26167664
250	0x3d9640d3	0.07336583
251	0x3ea76d91	0.3270078
252	0x3e59c1f5	0.21265395
253	0xbe77be32	-0.24193648
254	0xbcc11305	-0.02356864
255	0xbd3e8495	-0.04651316

fc3.bias f4 [4]
0	0xbd3a2084	-0.045441166
1	0xbd36095e	-0.044442527
2	0x3cfbe94d	0.030750895
3	0x3c53cafb	0.012926812
