checkpoint_critic.pth (torch, 545284 bytes, 9 tensors)

n1.weight f4 [33]
000000 a8 49 07 3f 66 73 55 3e a1 0d 11 3f dc 7e 0e bd
       0.52846766 0.20844802 0.5666142 -0.03478895
000010 9f 9c 10 3b d4 2a d0 3d 70 df 8a 3b 50 9b 19 3d
       0.002206601 0.10164419 0.0042380616 0.037501633
000020 89 a5 4e 3d 4e 91 5a 3c 81 3b d6 3d 4b 49 d0 3d
       0.050450835 0.013340307 0.10460568 0.101702295
000030 87 8a e1 3d d1 af 9b 3f a8 f5 b6 3e 33 ed 97 3f
       0.1101275 1.216303 0.35734296 1.1869262
000040 f2 d5 9a 3d 4e 5b 81 3d fe fa 97 3d 21 43 59 3d
       0.07560338 0.06316243 0.0742092 0.053042535
000050 41 d4 4f 3d 8c da 5b 3d 66 ea 33 3d a8 35 c7 3e
       0.05073953 0.05367522 0.04392471 0.38908124
000060 0e be 68 3e a3 84 bb 3e b0 c3 8b 3f 00 00 80 3f
       0.2272875 0.3662463 1.0919094 1.0
000070 87 01 8a 3f 00 00 80 3f 00 00 80 3f 00 00 80 3f
       1.0781716 1.0 1.0 1.0
000080 d6 63 a1 3f
       1.2608593

n1.bias f4 [33]
000000 4c 2a 13 be a5 45 78 be 9a bf 2f 3e 2e 2e 63 bc
       -0.14371604 -0.24245317 0.17162934 -0.013865991
000010 17 75 97 bb 24 e8 2e bc 5a 07 09 ba 32 a1 0e 3b
       -0.0046221125 -0.010675464 -0.0005227231 0.002176356
000020 2b 3b dd 3c 16 0e c3 3b 6c 40 55 bc 99 ec 0a bd
       0.027005753 0.005952607 -0.013015848 -0.033917043
000030 99 7a 03 3c 82 a1 38 bd 79 5d 95 3e bd 93 49 bb
       0.008024835 -0.0450759 0.29172876 -0.0030758225
000040 93 b7 cd bc 3d 78 8d bb 4c 25 9b bc ac ec 2c bc
       -0.02511195 -0.004317312 -0.018938683 -0.010554474
000050 88 87 44 bc db b0 3c bb de 0d 3a bc 3c 42 bd bc
       -0.011995204 -0.0028791938 -0.011355845 -0.023102872
000060 bb b6 ad 3d 98 6c 48 bc 2e e9 9d bd a9 5d 0d bf
       0.08482119 -0.012232922 -0.07710491 -0.5522104
000070 50 6f 2c 3d a5 a1 53 3f 3e ae c3 ba aa ee d1 be
       0.042098343 0.82668525 -0.0014929248 -0.410024
000080 de 84 a4 bd
       -0.08033155

n1.running_mean f4 [33]
000000 14 d3 dc bd 6b cf 2b c0 f4 14 09 3d e2 7f 67 3f
       -0.107824475 -2.6845348 0.033467248 0.9042951
000010 09 8f 3d bc 47 fd b0 3b 02 79 5e 3b 45 d2 bc bc
       -0.011569747 0.0054012868 0.0033946638 -0.023049483
000020 c2 1c ad bc 37 10 66 bc a5 9a 16 bd ad c7 bb 3b
       -0.021131877 -0.014041952 -0.036768574 0.0057305903
000030 09 29 80 3d 76 73 8c be 47 aa 26 c0 e8 5a b4 be
       0.06257827 -0.2743184 -2.604143 -0.35225606
000040 02 ba f6 3c 8f c2 87 bd 65 b2 99 3a 1a d6 d2 be
       0.030117992 -0.06628906 0.0011726139 -0.41178972
000050 4c ec 6f bd 5e 9f b2 3d 2c 5e a1 bc 22 6b 90 bd
       -0.05857496 0.08721803 -0.019698225 -0.07051684
000060 35 14 2e 3d 4f f4 25 3d ad a7 ab bb fc ff 7f bf
       0.04249974 0.040516194 -0.0052384944 -0.99999976
000070 5c d0 95 bd 00 00 00 00 fc ff 7f 3f 00 00 00 00
       -0.07315132 0.0 0.99999976 0.0
000080 1e b5 e6 bd
       -0.11265014

n1.running_var f4 [33]
000000 12 86 88 40 03 a2 65 3e 3b c2 8b 40 16 8b e9 3b
       4.266366 0.22425084 4.36746 0.007127176
000010 3b c7 91 3d 9e 32 3c 3c 0f 0a be 3d 5e 48 70 3e
       0.07118078 0.011486677 0.09279262 0.23465106
000020 36 94 72 3d 29 cd e6 3d ea 3e 0d 40 8e 5e 34 3f
       0.059223376 0.112696 2.206965 0.7045678
000030 e0 55 12 40 84 c3 9c 41 74 be 8b 3f 06 f7 ab 41
       2.2864914 19.595467 1.0917497 21.495617
000040 fd 49 b2 3d 7c a3 75 3e 1b f2 7d 3d 76 82 e0 3e
       0.087055184 0.23988146 0.061998468 0.43849534
000050 22 ba c4 3f b8 ce 31 3f 79 c1 e5 3e 86 eb da 40
       1.5369303 0.6945605 0.4487417 6.8412504
000060 d0 33 2b 40 a5 ab 14 41 84 33 ff 41 04 00 00 00
       2.6750374 9.291905 31.900154 6e-45
000070 c4 13 01 42 04 00 00 00 04 00 00 00 04 00 00 00
       32.269302 6e-45 6e-45 6e-45
000080 49 90 a1 3e
       0.31555393

fcs1.weight f4 [400, 33]
000000 47 cc 34 3e b8 43 d1 bd 9a 23 47 3f 98 09 57 bc
       0.1765605 -0.102179945 0.777887 -0.013124846
000010 ef c4 ca 3c d7 7e f6 bc 4f b8 17 bd b8 e6 01 3e
       0.024752108 -0.030089779 -0.037041005 0.12685668
000020 92 58 04 3e c6 f4 86 be df c4 66 bd 34 50 31 3e
       0.12924412 -0.26358622 -0.056340095 0.17315751
000030 1d c6 e8 3e aa 20 2c be 6c 4f 33 bd d7 22 c3 be
       0.45463648 -0.16809335 -0.043776914 -0.38112518
000040 5d c6 47 bb 90 14 79 3e 96 7a bf 3d 9b 16 28 3e
       -0.0030483224 0.2432425 0.09349553 0.16414873
000050 bc 17 a1 be 7b 4f 2b 3f e0 49 6c bf 89 5a da be
       -0.3146342 0.6691815 -0.92300224 -0.42647198
000060 e5 36 30 be ea 6b 16 be 15 d3 58 3e bc 9a 8a bb
       -0.1720844 -0.14689603 0.21174271 -0.0042298716
000070 41 1a 27 be ac 53 85 bd 8e 56 21 3d 61 50 ea bb
       -0.16318609 -0.065101 0.039389186 -0.007150695
000080 6b a5 3d bc 9b de 07 3f 05 e2 56 3e 50 49 e2 3d
       -0.011575083 0.53074044 0.20984657 0.110491395
000090 e9 a5 93 be cc 4a 1c bd 11 c1 6d be bf 97 3a 3e
       -0.28837517 -0.03815727 -0.2321818 0.18221949
0000a0 14 1b 35 3c 40 92 b3 bd 1f ca a8 3c 99 b4 b3 3d
       0.011053819 -0.08768129 0.020604191 0.08774681
0000b0 08 2d 52 3f 45 77 a4 bd 4a 2f 63 bd 07 36 3f be
       0.8209996 -0.08030561 -0.05546502 -0.18672954
0000c0 1a 52 f0 bc 17 b4 c8 3d 2e 6f c7 3e 7b b7 31 bf
       -0.029336024 0.097999744 0.3895201 -0.69420594
0000d0 93 38 3c be 8e 79 84 3d cf ac 6e 3e 13 db 9c be
       -0.18380956 0.06468497 0.23308109 -0.3063589
0000e0 17 17 67 be 19 34 0c be 71 96 96 bc 9f 44 59 3d
       -0.22567402 -0.13691749 -0.018382283 0.053043958
0000f0 61 0b f3 3e a8 e5 a4 bd 58 1e e1 be 41 a4 7e 3d
       0.4746962 -0.08051616 -0.43968463 0.062168363
000100 db 87 b8 3e a9 e8 33 bd 32 b8 81 3e 10 10 cd be
       0.3604115 -0.043923054 0.25335842 -0.40051317
000110 2a 77 7b bc b2 cc 8a 3e 89 a9 8d bd 54 c7 c1 be
       -0.015348235 0.27109295 -0.06917102 -0.37847388
000120 c8 75 88 bd b4 c5 0a 3f db f9 3e 3f fa 46 9e 3e
       -0.0666309 0.5420792 0.746 0.30913526
000130 e8 8e 82 3d 03 1a 05 bf cd 13 98 be e8 47 df be
       0.063749135 -0.51992816 -0.29702607 -0.43609548
000140 17 ac 49 be 71 d2 5a be 29 ec 22 3e 77 43 ef be
       -0.19694553 -0.2136934 0.159104 -0.4673116
000150 53 f6 ce be 5a a3 19 be 49 9b 7d 3e a9 04 58 3e
       -0.40422305 -0.1500372 0.24766268 0.21095528
000160 6f f6 79 be ca 1a 7c be 5f 7c dd 3d b5 94 ae 3d
       -0.24410413 -0.24619594 0.108147375 0.08524457
000170 4a 70 ba bd 03 23 87 3e c7 f9 df 3c d6 67 86 be
       -0.09103449 0.263939 0.027340783 -0.26251096
000180 a7 ab c5 3c ba 4b 63 3e ae 31 be bd 43 16 50 3e
       0.024129702 0.22196856 -0.092868194 0.20320992
000190 9d 53 c2 3c 2f 42 9c 3d 81 5f c7 bd 54 30 43 3e
       0.02372151 0.07629811 -0.09735013 0.19061404
0001a0 d5 ab 05 3e 40 fe 11 bc 52 a8 13 3e c5 63 bc bd
       0.1305383 -0.008910716 0.14419678 -0.09198717
0001b0 86 1a b3 bc 43 8b 1a be 34 a7 67 be d4 78 0e 3e
       -0.021863233 -0.15092187 -0.22622377 0.1391328
0001c0 91 9d 11 3e 4f 60 99 be e1 73 b5 3d 58 df 3f 3e
       0.14220263 -0.2995629 0.08859993 0.18737543
0001d0 cb 96 22 bd e5 0e 5d bd 0a 3b 80 be 47 05 a9 be
       -0.03969459 -0.053969283 -0.25045043 -0.3301184
0001e0 34 7d ee be fa ad 07 bf 2a 08 48 be bb 4b b3 bd
       -0.46579897 -0.5299984 -0.19534364 -0.08754679
0001f0 39 d9 43 3e 83 79 47 3e bb bf 31 3f 7b a5 72 3d
       0.19125833 0.19479947 0.6943318 0.059239846
000200 dd 28 4d bf 15 52 fc bd 67 8b 2d 3f d1 c9 56 3e
       -0.8014048 -0.123203434 0.67790836 0.20975424
000210 92 09 13 3e 8f bf db 3d c2 2c a0 be 37 78 31 3e
       0.1435912 0.10729896 -0.31284148 0.17331015
000220 c0 8a 02 3e 17 bc 8b 3c 24 f7 7e bc 0e 6b 81 3e
       0.12748241 0.017057462 -0.015561853 0.2527699
000230 da f7 90 3d e3 93 72 3e 8a 44 38 3e 16 68 2e be
       0.07078524 0.23689227 0.17994896 -0.17031893
000240 e7 fd c3 be 09 eb fe 3d 8b d6 39 bc 35 41 83 3a
       -0.3827965 0.12447173 -0.011342655 0.001001394
000250 79 39 3e be ea b7 8a bd 69 d4 69 3d 9f 78 b8 be
       -0.18576612 -0.0677336 0.057087336 -0.36029527
000260 d8 25 e8 3d 20 8e a4 bd 89 b2 cd 3e c1 ee 6d be
       0.11335343 -0.08034921 0.40175274 -0.23235609
000270 6a e8 ac bc 66 ba 49 bc b5 2f 98 3d 3a af 2d 3f
       -0.021106917 -0.012312507 0.074309744 0.678455
000280 a3 dd 54 bd dc df 3d bf 54 d8 d9 bc 66 9b 32 3f
       -0.05196918 -0.7416971 -0.026592411 0.6976837
000290 e7 74 62 3d f5 a7 6e be c0 9c 6e 3f 7c 9b 41 bc
       0.055287268 -0.23306258 0.9320793 -0.0118168555
0002a0 e1 de fe 3c e0 a6 61 be ea 2c 18 3f 68 16 ea 3d
       0.031112136 -0.22036314 0.59443533 0.11430055
0002b0 bf a1 96 bd 4d ea 14 3e 8c bd 9f bb 77 06 b0 bb
       -0.07355069 0.14542504 -0.0048748907 -0.0053718644
0002c0 f0 0d 38 3e 1a 26 bf be eb 3c 50 3e 9f 27 a8 be
       0.17974067 -0.37333757 0.20335738 -0.32842728
0002d0 b4 3f 62 3e 60 22 94 be 53 f2 16 bf cb dd a6 be
       0.22094613 -0.28932476 -0.5896351 -0.3259109
0002e0 9f 51 3e be c5 78 eb 3e d2 88 55 bd 75 2b a0 3e
       -0.18585823 0.45990577 -0.052132435 0.31283155
0002f0 e2 bb a2 3e 7a 9c ad be a6 7e 64 be ad a7 81 bd
       0.31783968 -0.33908445 -0.22313938 -0.0633081
000300 f8 09 fa 3e 07 ac 82 3e 05 fa 07 bf dc 80 89 bc
       0.4883573 0.2552187 -0.53115875 -0.016785078
000310 ee f7 ed 3e 1e e2 ab be 89 6d 88 3c a9 25 c1 3d
       0.46478218 -0.3357095 0.016653793 0.09431011
000320 0f aa ce bd 36 6f 7a 3e 40 7b 24 be 0a 29 49 3d
       -0.1009103 0.24456486 -0.16062641 0.049111404
000330 ca 43 11 3e 52 25 f2 be 9f 84 1d be 27 fa bc 3d
       0.14186016 -0.47294098 -0.15382622 0.092274
000340 9c 7b 40 be 58 12 90 3c fe b6 0d bd c3 b2 c2 be
       -0.18797153 0.017586872 -0.034598343 -0.3802701
000350 e1 43 23 be 4f 42 c6 3b be 6f 4c 3e b3 38 9f 3c
       -0.15943862 0.006050385 0.19964501 0.019436216
000360 6e 87 0e be 2a 45 01 be 6a 24 f2 bd 93 71 df 3b
       -0.1391885 -0.1262404 -0.11823352 0.006818959
000370 1f 8d 05 be e5 d5 29 be a3 25 23 3e 27 f6 89 bd
       -0.13042115 -0.165855 0.15932326 -0.06736403
000380 f7 73 0a 3d 97 4e 43 3f 04 1d 33 3e ac 54 55 bf
       0.033802 0.76291794 0.17491537 -0.83332324
000390 7b 3c f7 3d e6 1e 3a 3f 63 04 73 3e 64 7b fa 3a
       0.120720826 0.727034 0.23732142 0.001911026
0003a0 b2 3b 8d 3e 5a 9a 0f 3e 29 5d db be 16 71 16 3f
       0.27584606 0.14023724 -0.42844513 0.58766305
0003b0 ba 4e 52 be 3d ae 13 3e b8 31 07 be 9e cf 6f 3d
       -0.20537844 0.14421935 -0.1320256 0.05854761
0003c0 11 e3 70 3e 45 56 b9 3e 7b b0 e7 3d f5 de 84 3e
       0.23524119 0.3619863 0.11312958 0.25951353
0003d0 8a 51 b4 bd 8b cf 8f 3c f7 4b 92 3d e4 e8 0c 3c
       -0.08804615 0.017555019 0.071433954 0.008600447
0003e0 77 25 71 be 51 41 ff 3d 52 cf 42 be 4a 00 d4 bd
       -0.23549448 0.1246363 -0.19024399 -0.10351618
0003f0 a8 13 b2 3e c1 c3 16 be 41 82 a7 bc 9a 19 5c 3e
       0.34780622 -0.14723112 -0.020447852 0.21494141

fcs1.bias f4 [400]
000000 4f 3a 90 3d e0 fe b7 be 46 2f 2f be 70 4f 30 bf
       0.070423715 -0.35936642 -0.17107877 -0.6887121
000010 61 6f 20 bf de de b0 be fb a5 3a bf 0b 05 e8 be
       -0.6266995 -0.34545034 -0.72909516 -0.45316347
000020 69 6c aa be 4e 89 2f bf 7f a3 d5 be 1f 67 bb be
       -0.33285835 -0.68568885 -0.417263 -0.36602113
000030 09 58 c8 be 08 4b c4 be 5e f1 43 be 63 de de be
       -0.39129665 -0.38338494 -0.19135043 -0.43529043
000040 84 c8 11 bf 12 29 e1 be 3d 8a a5 be 5c ad 53 3d
       -0.5694659 -0.43976647 -0.3233203 0.051679
000050 dd 3f 0d bf 25 76 f1 be 71 9c 02 bf 3e 92 ad be
       -0.5517557 -0.4716045 -0.5101996 -0.33900636
000060 ec 6e a3 be 3f c7 0f bf 58 a9 0a bf 84 52 0a bf
       -0.31920564 -0.561634 -0.5416465 -0.5403216
000070 03 71 12 bf 6a aa 1d bf df 79 dc be 06 c3 0b bf
       -0.5720369 -0.61588156 -0.4306173 -0.5459446
000080 63 61 e0 be 95 fa 63 be 7d 8b ab be b3 aa 17 bf
       -0.438243 -0.22263558 -0.3350486 -0.5924484
000090 f0 cd 1f bf 23 49 41 bf 86 2f 07 bf 81 55 56 be
       -0.6242361 -0.7550222 -0.5280689 -0.20931055
0000a0 b5 9e 1a bf d8 8d 86 be fd 10 12 bf 51 8a f1 be
       -0.6039842 -0.26280093 -0.5705717 -0.4717584
0000b0 d9 0c fc be 57 eb 1e bf 16 3c 0f bf 48 03 3a 3d
       -0.49228552 -0.6207785 -0.5595106 0.045413285
0000c0 83 89 ba be e9 ba 52 bf 66 08 1e bf c1 be f0 be
       -0.36433038 -0.8231645 -0.61731565 -0.47020534
0000d0 d1 1d 58 bd 99 6d 56 be dc 9d e3 be 84 76 18 bf
       -0.05276281 -0.20940246 -0.44456375 -0.5955584
0000e0 83 0a cf be c0 7b d0 be 98 e0 00 bf 96 e8 21 bf
       -0.40437707 -0.40719414 -0.503427 -0.6324552
0000f0 f1 e3 89 be 7f 23 27 bf ee b2 f2 be 89 44 ba be
       -0.26931718 -0.6528854 -0.47402138 -0.36380413
000100 b3 ad 1f bf 58 80 b0 be 3d 58 5b be 6e ca 2e bf
       -0.6237442 -0.3447292 -0.21420379 -0.68277633
000110 bb b1 e2 bd d7 4a ba be d2 01 45 bf 68 86 af be
       -0.11069056 -0.36385223 -0.769559 -0.3428223
000120 c9 e7 be be 81 64 1b bf 35 9a e7 be 12 64 98 be
       -0.37286213 -0.6070023 -0.45234838 -0.29763848
000130 a2 be 22 bf 85 86 10 bf f1 0d 2b bf b8 99 c8 be
       -0.6357213 -0.5645526 -0.6681815 -0.39179778
000140 2e 91 05 bf 92 fa 9e be 65 c1 92 be 76 e3 f1 be
       -0.5217465 -0.31050545 -0.28663173 -0.4724385
000150 b2 93 af be 13 fd 82 be c8 73 02 bf a0 30 17 be
       -0.3429237 -0.25583705 -0.5095792 -0.14764643
000160 29 5a 0f be de 64 5a bf 1b 8c c7 be 73 66 0c bf
       -0.13999237 -0.8531016 -0.3897408 -0.54843825
000170 48 d6 e3 bd 05 03 09 bf 5a 9a 1d bf a2 5d d4 be
       -0.11124855 -0.5352023 -0.61563647 -0.41477686
000180 06 c4 84 3d dd 6c 1a bf e1 fc 4f be 73 71 81 be
       0.06482701 -0.6032236 -0.2031131 -0.25281867
000190 98 ec 0a bf 51 73 f0 bd 7a 9e a6 be 80 4a 26 bf
       -0.54267263 -0.11740745 -0.32542783 -0.6495743
0001a0 67 cd 8b be 2f 48 9c be 0d b2 ae be fe d6 fb be
       -0.27305147 -0.30523822 -0.34120217 -0.49187464
0001b0 2f ee 5d be cb 33 ca be 1d 53 d0 be 0c 42 da be
       -0.21672891 -0.3949264 -0.4068841 -0.42628515
0001c0 bf ce 5d bd 58 2a af be e9 55 b0 be 9f bb 05 bf
       -0.054152247 -0.34211993 -0.34440544 -0.5223941
0001d0 d8 94 99 be d1 da b5 be f1 a0 b9 be 7b 7c 20 bf
       -0.2999637 -0.35518506 -0.362556 -0.6268994
0001e0 48 84 97 3e f0 79 1f bf f1 e9 c5 be 54 7b a5 be
       0.2959311 -0.62295437 -0.38655046 -0.32320654
0001f0 d7 22 02 bf ef bb 04 bf 06 ef f4 bd e1 24 9b be
       -0.5083441 -0.51849264 -0.119596526 -0.30301574
000200 f0 e8 3d bf 08 62 88 be 81 49 05 bf 45 2b dd be
       -0.7418356 -0.26637292 -0.52065283 -0.43197075
000210 a9 da 90 be 18 67 95 be 03 1c ef be fa e6 f6 be
       -0.28291824 -0.29180217 -0.4670106 -0.48223096
000220 6d 97 c7 be 76 85 74 be 7b 3f ca be 16 3b 2c bf
       -0.38982716 -0.23879036 -0.39501557 -0.6727766
000230 65 6e f1 be de d8 9a be 1c cf 01 bf 13 e8 ff be
       -0.47154537 -0.30243582 -0.5070665 -0.49981746
000240 bb 79 10 bf b3 a0 3d bf 92 b7 68 be aa e2 7a 3d
       -0.56435746 -0.7407333 -0.22726277 0.06125132
000250 17 d7 21 bf c5 a6 9d be 0f e6 45 bf 0e 67 d5 be
       -0.63218826 -0.30791298 -0.77304167 -0.41680187
000260 cb 32 2b bf 36 0c ab be e2 00 01 bf fe 52 07 be
       -0.6687438 -0.33407754 -0.5039197 -0.13215253
000270 29 7f 6b be 50 1e ab be 7e a7 2f bf c6 c3 a2 be
       -0.22997727 -0.33421564 -0.6861495 -0.31789988
000280 88 6a aa be 4b 78 d6 be d3 14 17 bf 34 e0 ed be
       -0.33284402 -0.4188865 -0.5901615 -0.46460116
000290 3f 06 ec be b7 9a 41 bf 0d 77 f9 be 55 19 42 bf
       -0.46098515 -0.756267 -0.4872364 -0.75819904
0002a0 61 75 e6 be a1 29 c0 be 28 4f 03 be d6 7b 34 be
       -0.45011428 -0.3753176 -0.12823164 -0.17625365
0002b0 9b 00 19 bf 86 52 aa be 15 dc a4 be 3c da 8e be
       -0.5976655 -0.33266085 -0.3219916 -0.27900875
0002c0 2a bb 29 bf e5 a4 e5 be 4e 67 83 be c0 88 20 bf
       -0.66301215 -0.44852367 -0.25664753 -0.62708664
0002d0 82 cf 8a bd 53 2b ad be e3 61 9a be b4 59 e5 be
       -0.0677786 -0.33822116 -0.30152807 -0.44795
0002e0 ab 7d b1 be 1b cf 0e be 01 85 c6 be c8 2a b7 be
       -0.3466619 -0.13946192 -0.3877335 -0.35774827
0002f0 53 34 27 bf 3b a5 77 3d b1 b3 26 bf 20 cc b0 be
       -0.65314215 0.06046031 -0.6511794 -0.34530735
000300 6e f5 e3 bd b6 50 1e bf 1a d7 e2 be fc 97 00 bf
       -0.111307964 -0.61841905 -0.44304734 -0.5023191
000310 1b 02 1d bf 79 8c b1 be ba 31 89 be f0 42 22 bf
       -0.6133134 -0.34677485 -0.2679575 -0.6338339
000320 15 52 a2 be 18 89 93 be 71 4e fa be cb 51 31 bf
       -0.3170325 -0.28815532 -0.4888797 -0.6926543
000330 22 23 58 be b0 4c f8 be 6c 5c 0a bf 99 2a 2d bf
       -0.21107152 -0.48496008 -0.54047275 -0.67643124
000340 d9 33 bf be fd e7 54 bf 37 87 37 bf 7a 5f de be
       -0.37344244 -0.83166486 -0.71690696 -0.43432218
000350 9d 17 b2 be c6 85 2b be 75 c2 1a bf 7b 14 12 bf
       -0.3478364 -0.1675025 -0.6045297 -0.570625
000360 3c 79 05 bf ee e4 97 be b8 8e 03 bf 59 88 37 be
       -0.52138114 -0.29666847 -0.51389647 -0.17923106
000370 75 34 8f be 00 86 ed be 14 57 cb be cd 0b 70 be
       -0.2796971 -0.46391296 -0.39714873 -0.23442002
000380 6f 95 4e bf 36 13 15 bf 1d b1 be be 4b f2 34 bf
       -0.8069677 -0.5823244 -0.37244502 -0.7068221
000390 09 c8 11 bf c1 36 c2 3d 13 d5 56 bf c3 74 1f bf
       -0.56945854 0.094831 -0.83918875 -0.6228754
0003a0 3d 16 9e be 7e 88 1d bf 82 fb ac be 36 8c ca be
       -0.3087634 -0.61536396 -0.33785635 -0.39560097
0003b0 f1 4f 2e bf e2 ac 03 bf 0c bf 3b be c2 09 25 bf
       -0.6809073 -0.51435673 -0.18334597 -0.64468014
0003c0 e3 dd b8 bd c8 77 0c bf 08 f7 81 bd ed be ba be
       -0.090266965 -0.5487027 -0.063459456 -0.3647379
0003d0 52 ec d6 be ad 29 a6 be 32 d5 f2 be 9f de 1c bf
       -0.41977173 -0.3245367 -0.4742828 -0.6127719
0003e0 cc 61 1d bf 25 8e 0c be b6 54 be be 4f f0 15 bf
       -0.6147735 -0.13726099 -0.37174004 -0.58569807
0003f0 a3 57 de be e3 c9 8e be a1 d9 ff be 8b 3c 66 bd
       -0.43426237 -0.27888402 -0.49970725 -0.056210082

fc2.weight f4 [300, 404]
000000 13 17 49 3d c0 d5 a0 bd 1b 7a 09 bf 7a a4 72 be
       0.04909427 -0.078532696 -0.53701943 -0.23695555
000010 36 7b 19 be 86 8a 70 bd 4b b3 e0 be fe 98 d2 bd
       -0.14988407 -0.058725856 -0.4388679 -0.10283087
000020 aa 55 4f bf 34 81 b2 be f7 67 1e 3e b2 10 88 3e
       -0.8099009 -0.348642 0.15469347 0.26575238
000030 86 e0 74 3e a9 d5 d6 be 32 c6 85 be 54 b8 9e be
       0.23913774 -0.41959885 -0.26127774 -0.31000006
000040 b6 4d 45 be e8 1c 22 3d d4 49 66 3e 52 5e 0c 3e
       -0.19267926 0.03957835 0.224891 0.13707855
000050 ff 89 a3 bd fd 6d 99 be 35 5a c4 3c ca 63 60 bd
       -0.07985305 -0.29966727 0.023968795 -0.054782666
000060 65 24 1d be 17 fc 28 be 1b 79 4d be 38 ac 11 bc
       -0.15345915 -0.16502415 -0.2006573 -0.008891158
000070 6b 37 ab be 4f 25 47 bd 8a ef e6 bd f9 58 0e bc
       -0.33440718 -0.048619565 -0.11276157 -0.008688205
000080 8c 2e c0 be c0 42 07 3e 10 ac da 3d 32 8c 14 3e
       -0.37535512 0.13209057 0.106773496 0.14506605
000090 b3 cf bf bc 7b 4c 9a bd e2 ad af be cb 45 04 bf
       -0.023414468 -0.07534119 -0.3431235 -0.51668996
0000a0 f7 ea 41 3e f6 b7 15 be 2e e3 4b be 02 f0 1a be
       0.18937288 -0.14620957 -0.19910881 -0.15130618
0000b0 51 09 b2 bb ee 38 18 3e a6 4e b8 be 4a 21 b0 bd
       -0.0054332395 0.14865467 -0.35997504 -0.086000994
0000c0 d7 ad c4 bd d5 cc 0d be 49 46 98 3e 8d 68 49 bd
       -0.0960347 -0.13847668 0.29741123 -0.049171973
0000d0 81 5e 0c bf 4e 59 21 be 8a ce ff 3e 36 e5 b3 be
       -0.548317 -0.15756723 0.49962264 -0.35135812
0000e0 d2 37 ba 3e 59 c3 93 be ce 71 58 3e 3c f0 f9 bc
       0.36370713 -0.28859976 0.21137163 -0.03051006
0000f0 bc fe 1a 3d 37 7b b0 3d d1 78 1a 3e 20 19 33 be
       0.03784059 0.08617251 0.1508515 -0.17490053
000100 a0 db 18 bd 2c c0 8a bc 74 d4 63 be 0d 35 d3 bd
       -0.037318826 -0.016937338 -0.22249013 -0.10312853
000110 2c b1 1a 3f e7 8c 4a 3e 2d 41 1f be 04 84 7f be
       0.6042659 0.19780312 -0.15552206 -0.24952704
000120 76 7c b3 3e fe 64 01 3e dc ab 29 bd 0f 98 96 3e
       0.35055894 0.12636182 -0.041423663 0.29412887
000130 b7 18 1c 3e 05 65 10 3e 44 c1 c6 3e 39 59 65 be
       0.15243803 0.14101036 0.38819325 -0.22397317
000140 c5 18 91 be 0d f3 a3 bd 8a f2 70 3e ea 13 35 3c
       -0.2833921 -0.08005343 0.23530021 0.011052111
000150 5d 59 84 3e bb c4 54 be fd db 37 be b9 0b 28 bf
       0.2584943 -0.20778172 -0.17955013 -0.6564289
000160 d2 47 6d be 0b 6d 08 3e 30 57 6f be b7 1f c2 3d
       -0.23171929 0.13322847 -0.23373103 0.094787054
000170 da a1 23 be af b6 9c 3e 05 3b a7 3d ff 67 26 3d
       -0.1597971 0.30608127 0.08165554 0.040626522
000180 53 4a 0d 3e 67 74 93 3e 98 b6 5c 3e 12 ce 24 3e
       0.13797884 0.28799745 0.21554029 0.16094235
000190 dc 83 04 3e 98 2d 41 3d c9 bc a5 be 22 a0 99 be
       0.12940925 0.047162622 -0.32370594 -0.30004984
0001a0 ef d4 0e bf ae 50 11 be dc 65 bf be 9b 13 cc 3e
       -0.5579366 -0.14190933 -0.373824 0.39858708
0001b0 c3 ca 90 be 05 52 fe 3d 93 00 0e 3e af 23 fe 3e
       -0.28279695 0.12417988 0.13867407 0.496366
0001c0 2f 5b 66 be 21 53 91 3d 10 16 84 be 31 6f 96 3d
       -0.22495721 0.07095934 -0.25798082 0.07345427
0001d0 41 1f 04 be a8 49 40 3c e8 b6 35 bf 8e 44 22 be
       -0.12902547 0.011736311 -0.7098222 -0.15846464
0001e0 73 95 96 bd bb 79 9b bd bf 88 ca 3d c5 bc 8c bd
       -0.07352724 -0.075915776 0.098893635 -0.068719424
0001f0 ed b1 92 3e 57 cf 63 bd 26 c9 f8 bd ac 00 eb bd
       0.28651372 -0.055617657 -0.12147741 -0.114747375
000200 81 ab 0b be 98 a3 bd 3e 44 c7 df bd 65 0d 81 3b
       -0.13639642 0.37038875 -0.10926679 0.0039383643
000210 06 54 25 3e b9 85 8b 3e d4 6d 10 3d 60 85 2e 3e
       0.16145334 0.2725046 0.03526099 0.17043066
000220 02 d1 ce bd 68 84 82 be 50 3c 2d be 46 0d 95 3d
       -0.10098459 -0.25491643 -0.16917539 0.07277922
000230 59 96 44 3e a0 68 6b bd 2f b2 6e 3d 52 28 e0 3d
       0.19197978 -0.057472825 0.058275398 0.109451905
000240 41 6c da 3e 4c a6 4d be 0d 02 49 3e 48 67 f9 bd
       0.42660716 -0.20082968 0.19629689 -0.121779025
000250 fc 55 f1 3d 9e f6 64 3e e5 3f 94 bd 06 d9 a3 be
       0.11783978 0.22359702 -0.072387494 -0.32001513
000260 ee 1a ae bd ea 79 29 3e 29 4c 29 be a5 5d ed bd
       -0.0850123 0.16550413 -0.16532959 -0.11590127
000270 b8 1c b0 3e 48 8f 93 be cc 51 e2 3e 45 6d 5c 3d
       0.3439691 -0.28820252 0.4420303 0.053815145
000280 77 be 56 be f7 74 8d bd e0 23 80 3e be d5 b1 3d
       -0.20971094 -0.06907075 0.2502737 0.08683346
000290 ba 5c ae 3d 4a 22 f1 be fa 23 07 bf 6c 09 8e 3e
       0.0851378 -0.47096473 -0.5278927 0.27741563
0002a0 4e 2a 55 bd 99 64 d2 bd 5a 51 1b 3e 3a fb 2d 3f
       -0.052042298 -0.10273094 0.15167752 0.67961466
0002b0 cb ad 61 3e 81 1d b2 3d eb ef f4 be 1d 91 8d 3e
       0.22038953 0.08697034 -0.47839293 0.27649775
0002c0 c9 5b 28 3e 10 c7 77 3e d7 b4 01 bd f3 45 b5 bd
       0.16441263 0.2419703 -0.031666603 -0.088512324
0002d0 ee 5d 00 be 5e c4 01 be 34 aa 82 bd 4b d0 1e bc
       -0.12535831 -0.12672564 -0.0638012 -0.009693216
0002e0 d2 f8 02 3f c6 6a 7b bc ee c6 b1 3e 72 e6 f0 bc
       0.5116092 -0.015345281 0.34722084 -0.02940676
0002f0 06 7f 1f bc 44 a0 0b be 9a 51 dc bd bb e4 34 bf
       -0.009734875 -0.13635355 -0.10757752 -0.70661515
000300 6d 24 a5 bd a5 73 a4 3d 7b 8b 14 be 89 43 ea be
       -0.08063588 0.0802987 -0.14506333 -0.4575465
000310 f9 6b 28 3e c6 da 8d be 6a 42 04 3e ce 8a c9 3d
       0.16447438 -0.27705973 0.1291596 0.09840928
000320 b9 a5 e3 bb 06 55 7b be 52 79 75 3e 3f 91 64 be
       -0.006947246 -0.24544153 0.23972061 -0.22321032
000330 6f cb 8a bf c6 bf 96 be 9c a4 b8 be 24 33 e5 3d
       -1.0843333 -0.29443187 -0.36063087 0.11191395
000340 3f b2 0e 3f 0f 9f b8 bd a3 7e e9 bd 59 47 c8 3d
       0.5574073 -0.09014713 -0.11401107 0.097792335
000350 f1 d7 f1 3e 72 4d 43 be 23 a2 0b be 59 5e 34 bd
       0.47235063 -0.19072512 -0.13636069 -0.04403529
000360 77 bc 1d be d6 ca 5b bd 7b 97 4c 3e 5f 4c 88 be
       -0.15403925 -0.053660236 0.1997966 -0.26620767
000370 41 5c 29 3e 83 24 99 bd 86 55 56 3e 9f 28 c2 3e
       0.16539098 -0.07477667 0.20931062 0.37921616
000380 73 5b 72 be f2 29 12 be a4 51 f5 3d 76 1f 1e 3e
       -0.23667698 -0.14273813 0.11978462 0.15441689
000390 e0 e2 b3 3e 83 02 55 3d b8 4e 9f bd 67 ab 5c 3c
       0.3513403 0.05200435 -0.07778686 0.0134686
0003a0 8a 7a 41 3d 62 68 c7 bd 8b 27 c6 be 39 04 7f 3d
       0.047236003 -0.09736706 -0.38702044 0.062259886
0003b0 62 8b 8d be ea 1c 0c bf c7 e6 2b 3e 45 84 c1 3d
       -0.27645403 -0.5473162 0.16787253 0.094490565
0003c0 aa 0f 62 3e a9 53 d2 bd 6d 80 94 be 4d ea e7 bc
       0.22076288 -0.10269863 -0.2900423 -0.028309966
0003d0 af 07 75 be 22 62 3e bd cd 2d 2a 3e 4c c9 26 be
       -0.23928712 -0.046480305 0.16619034 -0.16287726
0003e0 ee df 81 be 2c e0 03 3e f3 4a 27 3f ce b5 27 3e
       -0.25366157 0.12878484 0.6534874 0.16377947
0003f0 c5 95 9b be a3 ba 53 3e 37 0d a3 39 e6 07 01 be
       -0.30387703 0.20676665 0.00031099629 -0.1260067

fc2.bias f4 [300]
000000 31 bf 6f 3e 69 73 44 be 42 76 46 3f a4 e6 c7 be
       0.23412777 -0.1918465 0.775242 -0.39043152
000010 9e 84 1f be 2b 85 02 3f d4 4c 18 bf 74 7c f6 be
       -0.15577933 0.5098445 -0.5949223 -0.48141825
000020 d5 1a 3e bd 69 22 df be 25 c8 78 bf 95 1b 66 be
       -0.046412308 -0.4358094 -0.97180396 -0.22471459
000030 12 0f 9e be 44 a1 ad be 6b 10 3b bf c7 e0 05 bf
       -0.30870873 -0.33912098 -0.73071927 -0.5229611
000040 45 9b 1e be 9e 4e 01 be cb da e0 bd 41 4c bd be
       -0.15488918 -0.12627646 -0.109792314 -0.3697224
000050 24 40 df be e6 5e 65 bf 54 95 0b bf 82 5f 2d bf
       -0.43603623 -0.8959793 -0.5452473 -0.6772386
000060 0a c2 1c 3e ad 88 3c bf bf 0f 3e bf 72 7d 07 3f
       0.15308395 -0.7364605 -0.74242777 0.5292579
000070 92 6f e5 be 7b 59 62 bf 0d c1 c9 be 15 1b 45 be
       -0.44811684 -0.88417786 -0.394051 -0.19248612
000080 b1 42 38 bf 29 63 d3 be ef dd 52 bf 43 e8 0f 3e
       -0.71976763 -0.4128659 -0.82369894 0.14053445
000090 ba 3c d0 bd 54 64 b8 be 47 a6 8d bf ea b5 21 be
       -0.10167833 -0.36014044 -1.1066369 -0.15792051
0000a0 f7 dd 27 bf 42 b3 f8 ba 88 5f 59 3e 7d c0 21 bf
       -0.65573066 -0.0018974321 0.21227849 -0.6318434
0000b0 59 95 ee 3e 99 cb 12 be e2 5c 07 bf e7 2a b5 be
       0.46598318 -0.14335479 -0.528761 -0.35384294
0000c0 c0 9c 1e 3f ae bd 5a bf 70 39 59 3e cd 03 83 bf
       0.6195793 -0.8544568 0.21213317 -1.0235535
0000d0 58 a2 f6 be 19 3c 81 be cd 78 b0 3e 23 9a 1f 3e
       -0.48170733 -0.25241163 0.34467164 0.15586142
0000e0 ed f5 5a bf f1 a3 48 bf a5 c5 7b be c8 40 e2 bd
       -0.855315 -0.78375155 -0.24587114 -0.11047512
0000f0 62 1b 1c 3e 70 64 35 bf 15 26 39 bf 29 6a 58 be
       0.1524482 -0.7085638 -0.72323734 -0.21134247
000100 03 08 10 bf 58 42 6d bf 1a 9a 84 3d a7 4c c8 3e
       -0.56262225 -0.9267936 0.06474705 0.3912098
000110 6e 00 90 be b8 2d 58 bf 3d 2f 38 bf 3d 46 1b bf
       -0.28125328 -0.8444476 -0.7194708 -0.6065405
000120 f6 4b d0 be 87 12 d5 be ea 7a 46 bf 1a 11 75 bf
       -0.40682954 -0.41615698 -0.775313 -0.9572922
000130 98 ec c0 be 66 3b d1 be 0a 97 b8 be 2c a8 54 bf
       -0.37680507 -0.4086563 -0.36052734 -0.8306911
000140 57 9e ca be 6b 12 4c bd e2 87 ad be f4 b5 ba be
       -0.3957393 -0.049822252 -0.33892733 -0.36466944
000150 f7 98 a1 3d 98 9e 4c bf 01 f2 6f bf eb 6a fc bd
       0.07890504 -0.79929495 -0.93728644 -0.123250805
000160 f2 39 7e be 53 f2 cc bd e1 25 20 be 6c 32 89 bf
       -0.24826792 -0.10007157 -0.1563945 -1.0718513
000170 db 0f a5 bc c4 d6 05 bf f0 1d 4f bf 1a c3 af be
       -0.020149162 -0.5228083 -0.80905056 -0.34328538
000180 ba 9f 5c bf 21 31 e5 be 61 6e 04 3f 96 a5 29 be
       -0.86181223 -0.44764045 0.51730925 -0.16567072
000190 eb a4 26 bf 88 a1 a1 be dd 13 0c bf bb 98 df 3e
       -0.65095395 -0.3156855 -0.5471781 0.43671212
0001a0 2e 8f f7 3d 57 f4 05 bf 11 04 19 3f e5 a3 b5 be
       0.12087856 -0.5232596 0.5977183 -0.35476604
0001b0 06 de 53 bf 96 71 ed be fa 77 81 be bf cf 99 3e
       -0.82760656 -0.46375722 -0.25286847 0.3004131
0001c0 ff 9f c8 be cd 43 62 bd 5f 0a 46 bf c8 d3 c5 3e
       -0.39184567 -0.05524044 -0.77359575 0.3863814
0001d0 b8 c4 a8 be c7 bc a6 be db d4 bc 3e d6 f1 48 bf
       -0.32962584 -0.325659 0.36881146 -0.7849401
0001e0 d1 89 97 be 9a 16 f0 be cb 5d 0c bf 4a 90 27 bf
       -0.29597333 -0.46892244 -0.54830617 -0.6545454
0001f0 9c c1 51 bf 02 29 9b be e5 27 7e bf 76 08 88 be
       -0.8193605 -0.30304724 -0.99279624 -0.26568955
000200 0a 10 bd bd 48 0c 12 bf 7a dd f4 be 60 d3 a8 bd
       -0.09231575 -0.5704999 -0.47825223 -0.082434416
000210 94 e7 35 bf 81 ba d6 3e e0 91 f9 be d1 7f f5 be
       -0.71056485 0.41939166 -0.48744106 -0.4794908
000220 2a 86 63 bf 66 8d 24 3e 2e b0 31 bf 65 f7 00 bf
       -0.88876593 0.16069564 -0.69409454 -0.50377494
000230 8c ca 67 be d0 9f 92 bf 7e c9 09 bf 81 ce 2a bf
       -0.22635859 -1.1455021 -0.5382308 -0.6672135
000240 44 aa 66 be 2f 29 71 bd 2d dc 18 bf ab bb ae bd
       -0.22525889 -0.058877166 -0.5971096 -0.085318886
000250 2e c9 f6 3e 9f cb 92 bd 51 fc 4a bf 03 08 ac be
       0.48200363 -0.07167744 -0.79291254 -0.33599862
000260 7c fc 1f bf e6 85 81 be 14 b7 88 be 13 44 64 be
       -0.62494636 -0.2529747 -0.26702178 -0.22291593
000270 a5 60 14 3f 24 75 08 bf 3d 15 57 3f bc 75 ba 3d
       0.5795997 -0.5330374 0.8401678 0.09104487
000280 e4 c4 19 bf 1a c0 13 3f 65 f5 67 bf a2 39 be be
       -0.60066056 0.57715 -0.9060882 -0.37153345
000290 ea e9 fe be cd 46 40 bf 13 97 39 bf a9 d9 0a bf
       -0.49787837 -0.75108033 -0.72496146 -0.54238373
0002a0 3e b0 d8 3d db 93 19 bf 56 20 bd be 6d c6 8b bf
       0.105804905 -0.59991235 -0.36938733 -1.091993
0002b0 f7 8c e4 be ab 83 2e be d5 15 53 3c 46 6f 8b bf
       -0.44638798 -0.17042415 0.012883623 -1.0893333
0002c0 da 63 5d bf b0 97 9b be 7c 15 cb bd cf 21 78 be
       -0.86480486 -0.30389166 -0.09916207 -0.24231647
0002d0 6a 93 0c bf 26 cc ca be 6e d3 f9 be 11 cf 2b bf
       -0.54912436 -0.39608878 -0.4879412 -0.67112833
0002e0 0b f0 be be e8 04 21 bf b7 3d 62 bf 12 15 d2 be
       -0.37292513 -0.6289811 -0.8837542 -0.410317
0002f0 ac 2f 1c bf 3c 2a d2 bd 8b 44 c7 be 14 9f ae be
       -0.6101024 -0.10261962 -0.38919482 -0.34105742
000300 f4 de c1 be db e0 a6 bd fc 03 63 bf 2b c8 00 3f
       -0.37865412 -0.081483565 -0.88677955 0.5030543
000310 ed 1b ae be 17 5a 44 bf b8 f6 f7 be 7c c2 2c bf
       -0.3400568 -0.76699966 -0.4843042 -0.6748426
000320 d9 53 e6 be 31 25 c1 be 02 01 fd be 7b 54 3a bf
       -0.44985846 -0.37723687 -0.4941483 -0.72785157
000330 6a 51 88 be 9f f1 5b bf e4 98 29 bf 9f ad de bc
       -0.26624614 -0.8591556 -0.6624892 -0.027182398
000340 b9 ff 03 be 5c 49 4d bf 3e ab 44 bf fb f6 2e bf
       -0.12890519 -0.8019006 -0.76823795 -0.6834561
000350 70 f1 02 bf 18 b4 31 bf ab 44 92 bf 49 e6 6d bd
       -0.51149654 -0.69415426 -1.1427206 -0.058080945
000360 4c c9 56 bf 87 b2 4a bf de 2b 90 be 55 bb c0 be
       -0.83900905 -0.7917866 -0.28158468 -0.37642923
000370 6e a9 22 bf 20 8f 78 3e 7c 8f 29 bf 18 c5 6a be
       -0.6353978 0.24273348 -0.66234565 -0.22926748
000380 be 43 12 bf f7 d8 5d bf 40 7f 43 be 66 ad a5 be
       -0.57134616 -0.8665919 -0.19091511 -0.32358855
000390 b6 9c 6f bf c9 dd 2e be be 89 40 bf 28 80 67 be
       -0.93598497 -0.17076792 -0.7521018 -0.22607481
0003a0 46 0e bc be 8f 35 f0 be b0 2c 8e bf 2a 63 e0 be
       -0.3672964 -0.46915862 -1.1107388 -0.43825656
0003b0 50 4d 05 be f7 c5 80 bd 2c d5 95 be 77 56 ee be
       -0.13017774 -0.06287759 -0.292642 -0.46550342
0003c0 d8 94 52 be c1 0d 14 bf 50 b1 70 be 4f 66 6f bf
       -0.20564592 -0.57833487 -0.2350514 -0.93515486
0003d0 aa 4c 9d be 28 f6 00 bf 4d 0c 25 bf 88 ea 5b be
       -0.30722553 -0.50375605 -0.64471895 -0.21476185
0003e0 c6 e8 bd be 77 e9 8a bf a7 eb a9 be c5 ef 27 be
       -0.37091655 -1.0852498 -0.331876 -0.16400059
0003f0 24 db 8c bf 04 82 80 3e 93 e2 4a bf 29 86 e6 3b
       -1.1004376 0.25099194 -0.79251975 0.007035036

fc3.weight f4 [1, 300]
000000 88 7f f3 3c 1f 07 47 bb ff 96 9b 3d 70 00 1e bd
       0.029723898 -0.0030369235 0.075971596 -0.038574636
000010 ad 9d b6 3c 33 05 67 3d 26 6f 3b bd 58 2b 96 bd
       0.022291983 0.056401443 -0.045760296 -0.07332486
000020 7b 14 25 bd 28 31 9b bb 29 ae 4a be e6 54 a6 bc
       -0.040302735 -0.0047360845 -0.19793 -0.020304155
000030 2c a6 91 bd e3 66 02 bd 46 79 71 bd 7f 2e eb bb
       -0.07111773 -0.0318364 -0.058953546 -0.0071771736
000040 c3 c4 2f 3d cb 28 8e bd fd 2c 1c 3d ad 85 82 bd
       0.042912256 -0.069413744 0.03812884 -0.06373153
000050 2e 38 77 ba 7d 7f 45 be 1a 11 87 bd a2 8b bb bd
       -0.00094306737 -0.19286914 -0.06595059 -0.09157492
000060 16 86 0a 3d 65 2c 41 bd 1c 91 99 bd 8c f2 12 3d
       0.03381928 -0.04716148 -0.074983805 0.035875842
000070 79 31 fa bb fa 56 5a be 04 6a 49 bd 60 fb 72 bc
       -0.007635292 -0.21322241 -0.04917337 -0.01483044
000080 46 ee 47 be ae 75 ac bb a2 f1 20 be 3a 17 41 3b
       -0.19524488 -0.005263052 -0.15717176 0.0029463307
000090 b1 6e 05 3d 81 38 21 bc a8 f4 97 be 6d 35 94 bc
       0.032576267 -0.009840132 -0.29678845 -0.018091882
0000a0 bd 78 94 bd 95 d8 8f 3c fc a9 ee 3c 8e 08 09 be
       -0.072495915 0.017559329 0.02913379 -0.1338217
0000b0 4f 72 a6 3d 73 2c ac 3c 8a fc 14 be c2 15 00 bd
       0.081272714 0.021017289 -0.14549461 -0.03127075
0000c0 4a 78 1d 3e 80 d1 60 be 7f 80 eb 3c f9 4f 95 be
       0.15377918 -0.21954918 0.028747795 -0.29162577
0000d0 70 33 be bd 0a 17 10 bc fc 2b 24 3d cf 0c d0 3c
       -0.09287155 -0.008794555 0.04008101 0.025396733
0000e0 6f 2e 53 be 13 97 4c be 33 68 b9 3c 8c cb 7e 3d
       -0.20623182 -0.19979505 0.022632694 0.062205836
0000f0 e5 f9 45 3d 38 c7 6e bd 70 c5 77 be 89 ad c7 bd
       0.04833402 -0.05829546 -0.2419641 -0.09749896
000100 bd ea b5 bd d7 2a 26 be 98 94 30 bc 6d 57 dc 3c
       -0.088826634 -0.1622728 -0.010777615 0.026897157
000110 75 46 fa b9 bb b5 0c be 15 37 ec bd 47 f7 01 be
       -0.0004773621 -0.137412 -0.115339436 -0.12691985
000120 bf 36 28 bd 27 da 75 bc e4 37 0e be 16 2d 50 be
       -0.041067835 -0.015005625 -0.13888508 -0.20329699
000130 01 44 8e bd 2c 2c f0 ba 99 b8 a5 bd 77 fb 09 be
       -0.069465645 -0.0018323711 -0.0809185 -0.13474832
000140 e4 7e f6 bc 31 1f 46 bd 14 2c e8 bd 16 0f f8 bc
       -0.030089803 -0.04836959 -0.11336532 -0.030280631
000150 c9 85 4d 3d 3b 48 4b be 28 22 07 be 31 8b c7 3c
       0.050176416 -0.19851772 -0.13196623 0.024358364
000160 c8 2f 06 bd 45 97 92 3b 7e b6 e5 3c 90 ef 9c be
       -0.03276041 0.004473599 0.02804112 -0.30651522
000170 6d f1 fd 3c 22 04 e8 bd b7 74 cb bd 4c 37 0f bd
       0.03099891 -0.11328913 -0.09934371 -0.034964845
000180 79 18 4b be b5 24 a6 bd 66 24 2f 3d 20 d2 a9 bd
       -0.19833554 -0.0811247 0.04275932 -0.08292031
000190 fc 09 cd bd 88 e9 25 bc 7f 20 9e bc f4 d2 02 3d
       -0.1001167 -0.010126479 -0.019302605 0.03193946
0001a0 56 cb 1b 3d 50 4f 2c bc d1 ca 3c 3d 51 6c 9c bd
       0.038035713 -0.010516956 0.04609186 -0.07637847
0001b0 31 04 50 be 86 23 08 bb 61 5a 2f bd e9 ef 27 bb
       -0.20314099 -0.0020773127 -0.0428108 -0.0025625175
0001c0 68 45 9e bb 1c 32 b0 3c cd 26 34 be 8a 12 78 3d
       -0.004830051 0.021508269 -0.17592926 0.060564555
0001d0 48 7b c4 bc 87 43 89 bd 56 f4 51 3d 89 d9 e0 bd
       -0.023984566 -0.06702333 0.051258408 -0.109789915
0001e0 33 c6 35 bd 0d 0b d7 3b b8 b4 9e bc 0c c4 f8 bd
       -0.04437847 0.0065625967 -0.019373283 -0.12146768
0001f0 c7 67 2b be 44 06 22 bd 3b 4e 76 be 07 87 0a bd
       -0.16738807 -0.039556757 -0.2405328 -0.03382018
000200 ad c0 0a 3b 34 05 e1 bc 38 0f 5e bc cd 4b 09 3d
       0.0021171973 -0.027468301 -0.013553433 0.033519555
000210 b0 74 44 bd ed 48 b4 3d 19 ae eb ba 9d d8 ec bc
       -0.047962844 0.08802972 -0.0017980962 -0.028911883
000220 fc ad 79 be d8 bd 17 3d c5 2f 0c be 3c eb 24 bc
       -0.24382776 0.037046283 -0.13690098 -0.01006585
000230 c4 f0 48 3d 77 61 99 be 40 21 26 bd 3e 49 01 be
       0.049057737 -0.29957172 -0.040559053 -0.12625596
000240 b3 9f 6c bc dc 8d e1 3c d0 28 df bd 56 b9 a9 3c
       -0.014442372 0.027533464 -0.10896456 0.020718258
000250 25 33 06 3d 31 9c 06 3d f6 4c 45 be 43 68 40 bd
       0.03276362 0.0328638 -0.1926764 -0.04697443
000260 e5 97 0c bd b9 89 09 be de 45 90 bd 1f c7 37 3d
       -0.034324545 -0.13431443 -0.07044576 0.04486763
000270 3d 6e c8 3d fb 98 73 bd 4b 3d b8 3d c2 43 0e 3d
       0.09786651 -0.059472065 0.08996066 0.034732588
000280 19 55 dc bc 02 8b 1e 3d ff e5 7c be e3 af e6 3b
       -0.026896046 0.038706787 -0.24697112 0.0070400103
000290 14 f4 e4 bc 00 e9 f3 bd 2e 78 8b be 5d 49 dc 3a
       -0.027948417 -0.119096756 -0.27240127 0.0016806532
0002a0 e7 8d 14 3d d3 63 32 bc 8e bc 8a bd 84 65 9e be
       0.03626814 -0.010888058 -0.06774245 -0.30936825
0002b0 aa 9d 4e bd ed 75 be 3c 51 e0 ec 3c b4 ad 94 be
       -0.05044333 0.02324959 0.028915556 -0.29038775
0002c0 1b 1a f1 bd 5b 0b 01 be cc b2 ce 3d 30 ed 03 bc
       -0.11772557 -0.12601988 0.100926965 -0.008052155
0002d0 98 5b dc bd da 40 30 bc 24 6f 95 bc 19 7e cb bd
       -0.107596576 -0.010757649 -0.018241473 -0.099361606
0002e0 b1 92 9c ba 4b b7 f7 bb 09 c2 3a be c6 96 35 bd
       -0.0011945573 -0.007559692 -0.18238081 -0.044333242
0002f0 57 b4 ed bd 5a 23 05 bc 84 0a 54 bc 31 81 97 3b
       -0.11606663 -0.008126104 -0.01294196 0.004623555
000300 e1 bd a3 bb 18 37 0e 3d df 5e 21 be b6 27 a3 3c
       -0.0049970006 0.03472051 -0.15758847 0.019916397
000310 03 39 86 bc 45 ea 85 bd 38 c5 16 bd 5f f5 fa bd
       -0.016384607 -0.06538824 -0.036809176 -0.12253832
000320 32 f9 c7 bc 6d c0 48 bb 1d 61 0d be 04 18 4f be
       -0.024410818 -0.0030632273 -0.13806577 -0.20224005
000330 b2 35 fa bc fe 61 67 be a7 d9 b2 bd da b5 69 3d
       -0.030543182 -0.22595975 -0.0873292 0.057058193
000340 83 bb 5b bc c0 aa f2 bd 4f 85 36 be 7d 82 08 be
       -0.0134114055 -0.11848974 -0.1782429 -0.13331027
000350 ba 4d 82 bc 3a a9 29 be ed 6e 8c be 51 38 3e 3d
       -0.015906204 -0.16568461 -0.2742838 0.046440426
000360 81 4c 3a be f0 22 40 be d5 f7 14 bd 80 2b c9 bd
       -0.18193246 -0.18763328 -0.036369164 -0.0982275
000370 bd 46 8e bd 24 eb cc 3c d1 4a 08 be 23 f5 88 3d
       -0.06947086 0.025014468 -0.1330979 0.06687381
000380 4a b1 6f bd ff 4d a8 be 34 0f 3d bd bd 36 e8 bb
       -0.058518685 -0.32872006 -0.046157077 -0.0070866034
000390 47 ce 23 be 48 e8 c2 3c ba 41 f4 bd 7a 1b b6 39
       -0.15996657 0.023792401 -0.11926599 0.00034734217
0003a0 e0 0d 59 bd ac 2e e8 bd 4e 37 8d be 4a 08 d5 bc
       -0.052991748 -0.11337027 -0.27581257 -0.02600493
0003b0 0d ac 11 3d cd 8f bb 3c 23 6c 81 bc 8c bf 63 bb
       0.03556447 0.022895718 -0.015798634 -0.0034751622
0003c0 7b 7f 47 3d ed 15 c3 bc 05 cf 9c bd 2c ee 7f be
       0.04870556 -0.023814166 -0.07656673 -0.24993199
0003d0 a3 aa 2e bd fb 9a ab bd e2 40 8d bd 08 d3 6f be
       -0.0426432 -0.083791696 -0.06897141 -0.23420346
0003e0 fc c1 5f bd 6b e2 82 be 0d c8 71 bc 9c 65 67 bd
       -0.054628357 -0.25563368 -0.0147571685 -0.056493387
0003f0 24 fe 9c be a4 fe f2 3c 65 1a 51 be 88 fa e6 3c
       -0.30662644 0.029662438 -0.20420225 0.028195634
